building and training a FFN for language modeling/2gram.pth (torch, 56762 bytes, 5 tensors)

embeddings.weight f4 [79, 10]
00000000: cbd7 fbbf d803 f7bf 9e1c 84be 4b80 38bf
00000010: e257 0e40 1ef0 b7be 3b5d d4be 38d4 e0bf
00000020: 201b 5c3f 79f4 9fbe 96b0 463f b72a 3ac0
00000030: 7d4c 89be 152a b13f ecb0 9c3f 3e46 53bf
00000040: 275e 8f3e ec5c 7a3f d386 653f 3751 b53e
00000050: d9d0 9fbf cbf5 16bf 4328 49bf 74fa ba3f
00000060: c8f4 c7bf 35aa 02bf 8598 abbf af7d bdbe
00000070: b805 5ebf b629 6dbe 013e 25bf 70a2 6d3f
00000080: bb2e 06bf 1fd5 1ec0 a7c0 913f 068f 01bf
00000090: 11f6 953d 66fd 3c3f d671 dc3e 7d54 c83f
000000a0: c31c da3e a7cb e5bd e3cd 96bf badf e4bf
000000b0: 38b3 543e 2211 d13e c006 dabf 4023 9bbe
000000c0: 030e acbe 1920 acbe 245b d03f d6d5 29bd
000000d0: 37cc d6be ad6a eb3e 059b 95bf 4ef7 acbd
000000e0: d1e3 cf3f da48 a5bf 5f73 35bf dda6 113e
000000f0: 72d3 b63f f34e 0840 72f2 efbc aff0 763e
00000100: b1cd 5bbf 8bad c2be a62a 733f 066f 013f
00000110: 0dfe 933f 0379 da3f 41c7 dc3f fd9e 3e3e
00000120: 5569 21c0 99a4 d93f 4717 7bbe 16d7 94be
00000130: 3a22 ba3f cc66 523e cee6 6b3f c7b0 f8bf
00000140: a74a 613f 7391 a6bf a153 143f 2c0b 4d3c
00000150: aa82 9bbf 1118 e3bf c82d bf3e ba3e a03e
00000160: 654e 27c0 a4a3 dabf 903b 7b3e c73c 89bf
00000170: 8e8b e6be 53de b33e b40f dabe 58a8 acbf
00000180: 3c0f 23be 9efa 0cc0 4ebc 223e 4ef6 5e3f
00000190: 9230 663f 71e5 9f3f 3192 ab3f 45ae 243e
000001a0: bd28 66bf d0d2 b1be 0b1a 14c0 c4af d63e
000001b0: 8e8f 923f ad27 163f c329 923e b6cf ebbe
000001c0: 9dd8 3bbf 6632 80bf 853a a0bd 78e7 c6be
000001d0: 2315 93bf d94c efbe 5f58 2a3f 8a39 9abf
000001e0: 950b cdbf 3f6e 703e 3f57 25bf 7f28 933e
000001f0: 23ad d73e 96bd 49be 4b2c efbe 58e5 41be
00000200: ab04 0dbf fe30 813f 6d1e 00c0 2514 b33c
00000210: 438b bf3f 5c8c bdbf 30f1 6dc0 d3eb 1fbe
00000220: 55d5 6f3f 9ad2 0840 db5d 8ebf e796 8ebe
00000230: 7136 84bd 6989 243e f826 9cbf a435 36be
00000240: 5431 e13e 9e7c aabe e132 93be 13d5 583e
00000250: f949 083f d488 72bf 5860 d23f 18ec 3ebc
00000260: 0ee7 90be df96 e93b a464 91bf 6ec2 d2bf
00000270: a33d 9cbe 492c 213f 38af 45c0 6dac 53bf
00000280: 7694 483e 7be9 adbd 82af a3bf a8b2 823f
00000290: 7c9a 583e 055e 9d3e 1fcb df3f 5a12 dcbf
000002a0: 248f 20bf b57e 28be 1169 ca3f afd8 6abf
000002b0: 800b df3f e188 023f e472 223f 6d47 1240
000002c0: 220d 493f 9523 9fbf c8c6 20bf f702 093f
000002d0: 0fb6 083f 68c2 2040 2a97 f43f a9d8 233f
000002e0: 8b3f 5bbf 9d3b 35bf 0f45 77bf 3e0e 0440
000002f0: 4217 b53e c94e 5bbf ef1b babd 01b8 69bf
00000300: 8369 b13f 273f aa3f f097 01c0 6715 9dbe
00000310: fe9e 64bf e593 50bf c30f 303f 2dfc 083e
00000320: 8098 8a3f 9555 d6bf 78b6 a3bf 5e71 a43f
00000330: 6796 d23f f5ca 3d3e ce2c c63f a5b7 63be
00000340: 7569 dfbe 17f6 cbbe f02c 3340 1264 e8be
00000350: 296b 33bf 4db8 ffbe f9c7 50bf f468 873e
00000360: 3286 4dbf f93b 413f a295 24bf 18b1 de3e
00000370: c7ea 3cbd 6dfe f73d d71d 03c0 3159 7ebf
00000380: 5966 15c0 56eb 94bf 0295 0f3f 205d a7bf
00000390: 8a9c 04bf 6972 073e f8a7 283e dac8 df3e
000003a0: f4d8 38be 3bc1 653d 65a4 dbbe aea6 b5bf
000003b0: 3c0f 4dbf 9504 28c0 9016 f13e f7d3 dd3f
000003c0: 1ee3 2fbf 4bbf a1bf c9c5 c43d ec5d c33f
000003d0: fae6 a4be dd79 89be b1ab 88be ebe5 d9be
000003e0: 893f 42bf cc14 91bf a057 d93f d5ef 41bf
000003f0: 45c8 993f c068 60be 313c 303f b247 a23f
-1.967523 -1.9298048 -0.25803083 -0.7207076 2.224114 -0.35925382 -0.4147738 -1.7564764
0.8597889 -0.31241205 0.776132 -2.908857 -0.26816168 1.3840967 1.2241492 -0.82529056
0.2800152 0.9779804 0.8965885 0.35413525 -1.248561 -0.589688 -0.7857706 1.4607682
-1.5621576 -0.51040965 -1.340592 -0.3700995 -0.86727476 -0.23160443 -0.64547735 0.92825985
-0.52415055 -2.4817579 1.1386918 -0.5060886 0.07322324 0.73824155 0.430556 1.5650784
0.42600068 -0.11220484 -1.1781582 -1.7880776 0.20771492 0.40833384 -1.703331 -0.3030033
-0.3360444 -0.3361824 1.6277814 -0.041463695 -0.4195268 0.45979825 -1.1687933 -0.08445607
1.6241399 -1.2912858 -0.7087917 0.1422381 1.4283278 2.1298187 -0.029290412 0.24115251
-0.85860735 -0.38023028 0.9498695 0.50560033 1.1561905 1.706818 1.7248307 0.18615337
-2.522054 1.7003356 -0.24520598 -0.29070348 1.4541695 0.20547026 0.92149055 -1.9428948
0.88004535 -1.3013138 0.5794011 0.012514871 -1.214925 -1.774172 0.37339616 0.31297857
-2.6141598 -1.7081189 0.2453444 -1.0721673 -0.45028347 0.35130557 -0.42590106 -1.3488874
-0.1592378 -2.2027965 0.15892145 0.8709458 0.8991786 1.2491895 1.3403989 0.16082104
-0.8990591 -0.3473115 -2.3140895 0.41930974 1.145006 0.5865429 0.28547487 -0.46056908
-0.733774 -1.001538 -0.07823662 -0.38848472 -1.1490825 -0.46738318 0.66541094 -1.204881
-1.601916 0.23479556 -0.6458625 0.28741834 0.4212428 -0.19701228 -0.4671348 -0.18935144
-0.5508525 1.0093076 -2.001857 0.021860192 1.4964374 -1.4808459 -3.717846 -0.15617304
0.93684894 2.137854 -1.1122392 -0.27849504 -0.064556964 0.16068043 -1.2199392 -0.177939
0.43982947 -0.332982 -0.28749755 0.21175031 0.53237873 -0.94740033 1.6435652 -0.011652969
-0.2830128 0.007128581 -1.1358838 -1.6465585 -0.30515775 0.629582 -3.0888195 -0.82684976
0.19587883 -0.084917985 -1.2787936 1.0210772 0.21152681 0.30735794 1.7483863 -1.71931
-0.62718415 -0.16454585 1.5813314 -0.9173688 1.7425385 0.5099011 0.6345656 2.2856095
0.78535664 -1.2432734 -0.62803316 0.5352015 0.534028 2.5118656 1.9108632 0.6400247
-0.85643834 -0.7079409 -0.9658975 2.0633693 0.35369307 -0.8566709 -0.09087359 -0.9129639
1.3860325 1.3300523 -2.0248985 -0.3068039 -0.893051 -0.8147567 0.6877405 0.13377447
1.0827789 -1.6744868 -1.279006 1.2847097 1.6452149 0.18534453 1.5482423 -0.22238024
-0.43635145 -0.3983619 2.7996178 -0.45388848 -0.7008539 -0.49945298 -0.81555134 0.2644726
-0.8028289 0.75482136 -0.6429082 0.43494487 -0.04612234 0.12109075 -2.0486963 -0.99354845
-2.3343718 -1.1634319 0.5608674 -1.3075294 -0.5180136 0.13227238 0.16470325 0.43707925
-0.18051511 0.056092482 -0.4289886 -1.4191492 -0.8010137 -2.6252797 0.47087526 1.7330312
-0.6870593 -1.2636503 0.09608037 1.5263038 -0.3220747 -0.26850787 -0.2669349 -0.42558226
-0.75878197 -1.1334472 1.6979866 -0.7575658 1.2014242 -0.21914959 0.68841845 1.267813

linear1.weight f4 [128, 20]
00000000: a042 f53c 25c2 553e c391 3c3e f97e 873e
00000010: c03b cdbe 0d26 88be 33ef 96be 37b3 59be
00000020: 530d 433e e7eb 873d d90e 0cbe df84 62be
00000030: f724 dabe fa29 89be bb5f a93e 58b3 26bd
00000040: fb92 5b3e 635d 0bbe b8b4 643d 4bde 76be
00000050: 5474 7dbc bde0 be3c 5b95 843e 5fb4 c93d
00000060: 8df6 3e3d 5259 b9bd dded 58be fe0d 263e
00000070: 01a9 8b3c d5b7 eabd cef6 ad3e a752 ecbd
00000080: 95ac 9ebc 2449 1b3d 73d0 4bbe 4cc8 023e
00000090: aeda 8c3e 3529 cfbd 9088 b7be 5be2 983e
000000a0: d5f9 a2be 8193 4c3e 35b2 59be 392e 563d
000000b0: 400e 0c3e bcbb f2bd 7fd9 54be 96c6 49be
000000c0: 3f21 0bbd dc27 fabd fbd1 193d 7a50 703e
000000d0: c0d1 003e e7b7 8cbd 89f5 1abe 0213 85bd
000000e0: 1673 313e 51df 50be 072c 253e a27a b73e
000000f0: 34c0 41be 43b9 7ebe 9e84 06be 0dc2 10be
00000100: 81f5 b03d 7d2d 6cbd 4227 413d bb47 423e
00000110: a0d8 773d d030 37bc 9afd fc3d 1237 90be
00000120: 50da 01be f570 b8be 4cc9 823e 4788 b5bc
00000130: cf04 cebe 4c6d 83be f78d 0b3e 6188 2e3e
00000140: 7de4 93be d708 ae3e b42f 013c 8cac 5bbd
00000150: 87e1 d93d 8a20 0d3e 7711 5cbe c7e2 97bc
00000160: 37cb 883e d304 943e f3fc d63d 51fe 8cbd
00000170: 5fcb 553c 3a62 ba3e 096e 43be 024b 8dbe
00000180: f16f 4fbe d0fe 1b3d 0774 3ebd 673c 05be
00000190: 70d4 b7bc b881 a63d 4ba1 a2be c882 ad3e
000001a0: ef0f 8a3e e50e 093e d530 7f3e 60bc c5bd
000001b0: 0d9e 4cbe 562c 5ebe aa6d 71bc de05 243e
000001c0: a10a 81be 7852 943e 739c bf3b b783 ed3d
000001d0: 47d8 853e 45d3 8ebe c189 89be 7f09 36be
000001e0: 009e 7f3e 5b11 5f3d dc29 5d3d a7e8 dc3d
000001f0: 1085 673e c110 213e a300 87bd afad de3d
00000200: 88c2 9bbd 0d77 c7bb 8656 813e dc89 2d3d
00000210: 55f6 b6bd d47a 88be 17ac adbb a59e d13d
00000220: 84bb 403d 6936 113d f729 9bbe 4138 92be
00000230: 3a14 933e 0bac 95be 65f2 74be fe60 abbd
00000240: 8009 39be 082b 6dbd 85bc 8a3e 6f7d 8b3e
00000250: 04da 763e ad11 75be 495d 8fbe 28d5 92be
00000260: 9bb6 a0be 35b9 323e 53f4 fabe d427 b4be
00000270: 9506 3d3e 4a9a d5bc 67fe 51be dc78 743d
00000280: 7e8a 94bd 8f7e 28be a979 5d3d d249 4f3e
00000290: f38e 033e 32f1 23be 63b4 80be 38c4 ba3d
000002a0: c9b5 a13d 80ff d8bd 8af6 46be 673e 763e
000002b0: 872f 91be 3b0d ad3d d7e7 44be 79c1 88bd
000002c0: 3b6c 08be e6cc 933e d0da da3d c40c 883b
000002d0: 088b b4bd e112 cabd 0e08 8f3c 258e 463e
000002e0: f711 15be 488b 70bd 93d5 4fbe 7c27 0b3e
000002f0: 9b91 033e 7137 b7bd 588d 043e ec03 633e
00000300: 5533 d23e 3fb6 94bb c255 f0bb 6851 153e
00000310: e250 48bd 0cda 283e 4316 3c3e bfa6 403d
00000320: 4e45 7dbe dc3d b03d d162 883e 4133 873d
00000330: 3aa9 f0bd ec69 573d a49d a83e c915 503e
00000340: 550b 5fbb 69e7 a13d 0615 05be fb1e 28be
00000350: 4b57 783e 4808 10be 728d 3cbe 6cc9 32be
00000360: 704f 6b3d a01c 163d 377d 4e3e a1ad 253e
00000370: 0334 373b 540c fc3d 57fd 8bbe e130 443e
00000380: 5473 d2bd 8813 2ebd d91d 543c b1f6 9dbe
00000390: 5745 483e dfaf 2a3e f17c 533e b1d3 7d3e
000003a0: f4f9 cdbd 574f 29be 970a 1dbe bd41 7f3d
000003b0: a6e0 4cbe a73d d73d b459 11bc 4e1f 86be
000003c0: f0e2 abbd ecab 41be eed4 cf3d 3545 b8be
000003d0: d1b9 de3e f739 23be a749 f23d c373 5fbe
000003e0: 37e3 8c3e 6935 2bbe 8501 24be 8133 e93d
000003f0: 60fb 81be f33a 40be 9e2b 4e3e bacf 8ebd
0.029938996 0.20874842 0.18414979 0.2646406 -0.40084648 -0.2659153 -0.2947937 -0.21259771
0.19048052 0.06636792 -0.13677539 -0.22120999 -0.42606327 -0.26789838 0.3308085 -0.04069838
0.21442787 -0.13609843 0.05583641 -0.24108236 -0.015469629 0.023300523 0.258952 0.09848856
0.046621848 -0.090502396 -0.21184488 0.16216275 0.01704836 -0.114608444 0.3397736 -0.11539202
-0.019369403 0.03791155 -0.19903736 0.1277172 0.2751059 -0.101152815 -0.35846376 0.29860196
-0.31831232 0.19978143 -0.21259387 0.052290175 0.13677311 -0.11852214 -0.20786093 -0.19704661
-0.033967253 -0.12214634 0.03755377 0.234682 0.12580013 -0.06871014 -0.15132727 -0.06497766
0.17329058 -0.20397688 0.16130076 0.3583575 -0.18920976 -0.24875359 -0.13136527 -0.14136524
0.08640576 -0.05766057 0.04715658 0.18972676 0.060509324 -0.011181071 0.12353058 -0.28167015
-0.12680936 -0.3602368 0.25544202 -0.022159709 -0.40238044 -0.25669324 0.13628374 0.17044212
-0.2888526 0.3399112 0.0078849085 -0.05363135 0.10638719 0.13781944 -0.21491037 -0.018540753
0.2671754 0.2890993 0.10497465 -0.068844445 0.013048976 0.36403066 -0.19084944 -0.2759629
-0.20257546 0.038084805 -0.04649737 -0.13011323 -0.022440165 0.08130211 -0.31763682 0.3388884
0.2696528 0.13384588 0.24920972 -0.0965507 -0.19982167 -0.216966 -0.014735619 0.16017863
-0.25203422 0.2896917 0.0058475076 0.11597388 0.2614157 -0.2789556 -0.2686291 -0.1777706
0.24962616 0.05445991 0.053995 0.107865624 0.22609353 0.15729047 -0.06591918 0.10872971
-0.07605463 -0.00608719 0.25261325 0.0423678 -0.08933703 -0.2665621 -0.0053000557 0.10235337
0.04705383 0.03545228 -0.30305454 -0.28558543 0.2872637 -0.2923282 -0.23920591 -0.08368109
-0.1807003 -0.057902366 0.27096954 0.27244136 0.24106604 -0.23932524 -0.28000858 -0.2867825
-0.31389317 0.17453463 -0.4901453 -0.35186636 0.18459542 -0.026074547 -0.20507203 0.059685573
-0.07252978 -0.16454528 0.054071102 0.20243004 0.128475 -0.16009977 -0.25137624 0.09119457
0.07896001 -0.10595608 -0.19429985 0.24047242 -0.28356573 0.08449789 -0.19229065 -0.06677527
-0.13322537 0.28867263 0.106862664 0.0041519124 -0.088155806 -0.09866882 0.017459895 0.19390161
-0.14557634 -0.05872658 -0.20296316 0.13589281 0.12848513 -0.089461215 0.12944543 0.22169465
0.41054788 -0.004538327 -0.007334442 0.14581835 -0.04890526 0.16489428 0.18367867 0.04703402
-0.24733469 0.08605549 0.2663789 0.06601573 -0.117510274 0.05259125 0.3293277 0.2032081
-0.0034033854 0.07905466 -0.12996301 -0.16418068 0.2425205 -0.14065659 -0.18413332 -0.17459649
0.057448804 0.036648393 0.20164953 0.16179515 0.0027954585 0.12307039 -0.2734172 0.19159271
-0.10275903 -0.042499095 0.012946569 -0.30852273 0.19557701 0.16668652 0.2065313 0.24787785
-0.100574404 -0.16534172 -0.15336071 0.062318552 -0.20007572 0.10509806 -0.008871485 -0.2619576
-0.08392894 -0.18913239 0.10148035 -0.359903 0.43501142 -0.1594008 0.11830454 -0.21821503
0.275171 -0.16719593 -0.16016205 0.11386777 -0.25387096 -0.18772487 0.20133826 -0.069732144

linear1.bias f4 [128]
00000000: 8905 b53e 726c 913e 50e3 b53d 0d91 683e
00000010: 6323 823e ca23 be3b ecb9 753d 136c b03c
00000020: fe35 133e f1f9 713e 4512 983e 92db 723e
00000030: 06f0 a33e f76a e63c 5f46 8c3e ce1d 2d3d
00000040: a1cd 3d3e e336 993e 3322 843e 0308 95bc
00000050: 0967 663e 1258 11bc e299 9d3e d3c8 873e
00000060: bbd5 8b3d d001 99bd 496b 27bd d4fd 56ba
00000070: 8f37 ac3d 2ac7 983e 0761 933c c398 5fbd
00000080: d621 393e d34f 4ebe b0df dc3d e47c bc3e
00000090: f180 853e 2f11 3f3d a37b 653e a752 033d
000000a0: 765a 25be 8e01 6e3c 8968 a83d 6d68 ce3d
000000b0: c4bb b23e 7a30 283e 132f b9bd 4630 9abd
000000c0: f99b 693e e38d 12be ce69 353c 3861 a93d
000000d0: a217 313e f41b 873e d341 223e 21ac abbd
000000e0: a172 503e 1819 1c3e fc1a 85bd 4d10 f03d
000000f0: e149 5b3d 2f50 c23b aa3d a73d 405b 4cbd
00000100: 14e6 343e 1c01 2e3e 7f7e 5d3e 5149 7d3d
00000110: 0ba6 0b3e 2b65 6d3e 6619 5f3e 3926 963e
00000120: ae40 423e 9a17 7d3d 595a 2dbe 1637 593e
00000130: f798 863e 22b5 563e 5e69 0f3e 73da 8b3e
00000140: 4944 e2bd 4c4f 343e 52c1 5b3d 7918 203e
00000150: 531a 323e bfb4 a93e 44fe 58bc 9706 883e
00000160: 4d97 7fbd efe2 1e3e 4d3b 8c3e b2d0 0cbd
00000170: ef9a 183d 98a1 a93e 54e0 463e d979 ad3c
00000180: b469 6f3e c657 993e 249a 17be 7f0c c13e
00000190: e8fa f93d 0675 d93d 53ad 383e 5e14 993e
000001a0: 2585 963e a97a 663e 3c5b ba3e 1b18 0abe
000001b0: 7c68 8d3e dd58 413e 31bf 68bd a900 c8bb
000001c0: b715 5e3e 33ea f23c d26f 563e 7ee8 4f3c
000001d0: a53f 793e a245 4f3e 2711 953e 8525 893e
000001e0: fef2 67bc eb87 833e d509 a4bc fab6 6ebd
000001f0: 8f02 09bd 7656 1e3b d572 e53d a0f2 d5bc
0.35355785 0.2840305 0.08881247 0.22711582 0.25417623 0.005802606 0.059991762 0.021535909
0.14376065 0.23630501 0.2970144 0.23716572 0.3201906 0.028127177 0.2739744 0.042264752
0.18535472 0.29924688 0.25807342 -0.018192297 0.22500242 -0.008871095 0.30781466 0.26520404
0.06827875 -0.07471049 -0.0408738 -0.00082012755 0.084090345 0.2983945 0.017990602 -0.054589044
0.18079314 -0.20147638 0.107848525 0.36814034 0.26074937 0.046647247 0.22410445 0.032061245
-0.1614779 0.014526738 0.082230635 0.100785114 0.3490888 0.16424742 -0.09042182 -0.07528739
0.22813405 -0.14311938 0.011072589 0.08270496 0.17294171 0.26388514 0.15845422 -0.0838244
0.20356227 0.15243948 -0.064992875 0.11721859 0.053537253 0.005929969 0.08166058 -0.04989171
0.17665893 0.1699261 0.21630286 0.061837498 0.13637559 0.23183124 0.21787032 0.29326037
0.18969986 0.061790086 -0.16928996 0.2121242 0.26288578 0.20967534 0.14005038 0.273151
-0.110481806 0.17608374 0.05365116 0.15634336 0.17392854 0.3314571 -0.013244215 0.26567528
-0.06240015 0.15516256 0.27388993 -0.034378715 0.03725713 0.331311 0.19421512 0.021176266
0.23380166 0.29949778 -0.14804894 0.37704846 0.1220606 0.106180236 0.18034868 0.2989835
0.29398456 0.22507729 0.3639773 -0.13485758 0.27618778 0.18881555 -0.05682296 -0.0061035943
0.21687971 0.02965269 0.20941094 0.012689708 0.24340685 0.20241407 0.2911465 0.26786438
-0.014157055 0.25689635 -0.02002422 -0.05827997 -0.033449706 0.0024160421 0.11203543 -0.02611667

linear2.weight f4 [79, 128]
00000000: 5a69 87be 7520 44be 8dfe 5a3e f637 f13c
00000010: 3114 dc3d 5f3f 2c3d 624d 58bd 90cf b23b
00000020: a96e 1b3e 1612 b7bd 6217 b8bc 7608 9fbd
00000030: e4b5 cf3e d293 8b3d 843a 263d 8e43 f8bd
00000040: a61a 06bc cf14 b03d ef9d 03bd 6755 f33d
00000050: 41e0 953d 8e83 573a db49 8abe 3f44 703e
00000060: cf7f 923c fccf 86bd 1863 b23d a6a8 ffbd
00000070: 68a7 9bbd 2050 36be 7e3c 563e ec0d 203e
00000080: 7517 b33e 2168 cd3d e8e7 073f 20ec 79be
00000090: d899 debd a4c8 22be a7a7 513e 7386 f13d
000000a0: 26b4 f53c d83a a6bd 653e 223e 981a 09bd
000000b0: 4199 f03d c22a 463d 4b62 0f3e 87f9 12bd
000000c0: e3bc 15ba 1f6c 853d abe2 3bbe 6dca c8bd
000000d0: 3863 9fbd ba50 eebd c210 09be e781 fb3d
000000e0: 3ed0 863c 7732 31bd 9828 36bd c4d3 273e
000000f0: aab5 e8bd 1792 1fbe 6f12 fa3e 11ee 81be
00000100: 733c 29be 99a1 12be 3f1c 06be a9c3 bbbc
00000110: adf6 0dbd e4c1 35be 4872 21be 3b62 7cbd
00000120: 6623 223e 7bf0 38bc 93b9 8f3c 1082 bb3e
00000130: 907d 933e e43a ff3e 66e1 e8bd 5ed7 59be
00000140: 5828 dfbc a5ee a7bd 3435 093e e4e6 77bd
00000150: 056b 3a3e 3a93 99bd e31e c43b b2f6 54be
00000160: fb53 643e 73e1 80bd df36 80be 8def 21bd
00000170: 0971 9bbd 2384 9b3c e7f0 19be 26bd 4a3e
00000180: 15fe 0fbd 000d f9bd 9016 42bc b298 0bbe
00000190: efe3 4ebe 24c0 a1bd d050 153d 2d72 efbd
000001a0: 8b8a 903d 835c 1c3e ea40 143c 4b06 5c3e
000001b0: 1c86 b13e 917f ce3e ef63 843d 1043 813b
000001c0: 48bc 9a3d 8ecf 98be a29e ae3e 0513 023d
000001d0: 3db6 69bc 1957 a1be d4c1 643d 9bf7 9eb9
000001e0: 5e8b f2bd a1cb 77bd 4ae8 be3e 068b 973e
000001f0: 274e 50be b9b1 9f3d 37e5 c8bd 61da 45be
00000200: 0315 09bd 92dc e0bc 3f0a acbd ba9d e5bd
00000210: 5b8b 35bc a908 b1bc 241f b13a 3954 15bc
00000220: bc84 063d 79a1 81bd 7630 f93c b2a5 663d
00000230: 9083 6f3c e2eb 1fbc c2b9 763d b2a8 043d
00000240: e944 29bb 4f72 293d e2ed 9abc 4fe6 ae3b
00000250: 3259 f83c bd38 243d f361 0c3b 9c1f b9bd
00000260: 76da 153d d947 e7bd c07f 893c 03cc cb3c
00000270: ca10 f8bb 5bed debd 1f29 9ebd 2b71 e1bd
00000280: 9fb3 3a3d 157a 893d 02bc 17bd dcf8 f5bd
00000290: 7437 ddbb 62c8 fcbb a646 e33c 6c8c 9fbd
000002a0: 89b1 63bd 49b1 c1bd 74d8 2a3d 9e30 01bd
000002b0: 7a2c ebbd aa07 9abd 7e72 73ba 3beb b43c
000002c0: 2a45 613c 15a9 d4bc 72fc a2bb 2f34 a63a
000002d0: ab53 f1bc d1ef 123d 29e7 853d 3fa7 6bbd
000002e0: a7d9 213d 3dfc 46bd e29e c83c e479 d6bd
000002f0: f5b2 443d 6b8f 66bd 4811 bd3c ca95 3c3d
00000300: a574 ca3c ee96 5ebd 37b9 9cbd b374 8cbc
00000310: 3df9 b5bd f870 e33b ea1b eebd ca2e 533d
00000320: 5c5b d93c 303b 13bd 835d 023c 2c1b 72bc
00000330: 849a 56bc 8c48 1dbd d52f 243d aa05 febb
00000340: b706 993d 144b 763d ad13 e1bc 2e4b 37bd
00000350: e4fe bbbc 128a 48bd 5b01 75bd 1608 273d
00000360: 4e80 c8bd 2a0a 0fbd b7a7 91bc 5768 a2bc
00000370: ab28 d03c d622 90bd ab06 8a3c 341c 883d
00000380: 3326 e9bd 7d02 393d 2185 b9bd 7067 93bd
00000390: 254c 64bd 1bb3 493d 6433 f0bd 2a4b 6c3c
000003a0: cfa4 5cbd 0057 a3bc 6c5f e23c 4dda 893d
000003b0: 4267 f1bd d2a8 d33b b18b c2b9 dae1 c93c
000003c0: b8fa d63b 5ec2 063d 3cae e3bd 5ee7 cabc
000003d0: f3ef cbbd 1f48 14be 2740 1ebd e2b6 a23c
000003e0: 1e8d 693d 68f1 2a3d b85d b73c db98 dabd
000003f0: 4fc6 46bc 60e5 3a3d 830e 593d 4acb 4a3d
-0.26447564 -0.19153006 0.21386166 0.02944563 0.10746039 0.042052623 -0.052808173 0.0054568723
0.15178932 -0.089389965 -0.022472087 -0.07765286 0.4056846 0.06815304 0.04058315 -0.1212226
-0.008185064 0.08597719 -0.03213304 0.118815236 0.07318164 0.00082212023 -0.27009472 0.23463534
0.01788321 -0.065826386 0.08710307 -0.12483339 -0.076002896 -0.17804003 0.20921513 0.15630311
0.34978834 0.10029627 0.53088236 -0.24406481 -0.10869187 -0.15896851 0.2047411 0.11793222
0.029993128 -0.08116692 0.15844114 -0.033472627 0.11747981 0.04838062 0.1400234 -0.0358825
-0.0005712045 0.06514763 -0.18348186 -0.09804235 -0.07782596 -0.11636491 -0.13385299 0.12280636
0.01645672 -0.043261018 -0.044472307 0.16389376 -0.11362775 -0.15583073 0.4884219 -0.25376943
-0.16526966 -0.14319457 -0.13096713 -0.022920446 -0.034659076 -0.17749745 -0.15766251 -0.061617117
0.15833816 -0.011287804 0.017544543 0.36622667 0.28806734 0.49849617 -0.11371116 -0.21273562
-0.027240917 -0.08199815 0.13399202 -0.06052293 0.18204887 -0.07498784 0.0059851273 -0.20797232
0.22297661 -0.06293001 -0.25041863 -0.039535094 -0.07589919 0.018983906 -0.15033303 0.19798717
-0.03515442 -0.12160683 -0.0118462 -0.13632467 -0.20204137 -0.07897976 0.036454022 -0.11691699
0.07057675 0.15269665 0.00904868 0.21486776 0.3467263 0.403317 0.06464373 0.003944762
0.07555443 -0.29845852 0.34105402 0.03175642 -0.01426464 -0.31511763 0.05584891 -0.0003032059
-0.118429884 -0.06049693 0.37286597 0.29598254 -0.20342313 0.0779757 -0.09809344 -0.19321586
-0.033467304 -0.027448926 -0.08400392 -0.112117246 -0.011080588 -0.021610575 0.0013513309 -0.0091143185
0.03284143 -0.063296266 0.030418616 0.056310363 0.014618769 -0.009760829 0.060235746 0.032387443
-0.0025828427 0.04136878 -0.01891226 0.0053375135 0.03031597 0.040093172 0.0021420687 -0.09039232
0.036585294 -0.11293001 0.016784549 0.024877554 -0.007570361 -0.10885116 -0.07722687 -0.11007913
0.045581456 0.067127384 -0.037044533 -0.12010357 -0.0067509953 -0.007714317 0.027743649 -0.07790455
-0.055589233 -0.094576426 0.041710332 -0.031540506 -0.114830926 -0.07520993 -0.0009286775 0.022084823
0.0137494 -0.02595953 -0.0049739415 0.0012680347 -0.029458841 0.035873238 0.06538231 -0.057532545
0.03951421 -0.048580397 0.024489824 -0.104724675 0.04802223 -0.056289118 0.02307953 0.046041287
0.024713824 -0.054343157 -0.076525144 -0.01714549 -0.08885429 0.006940957 -0.11626418 0.051558293
0.026532821 -0.035945117 0.007956865 -0.014776986 -0.013098363 -0.038399264 0.04008468 -0.00775214
0.07471984 0.060130194 -0.027475202 -0.04474943 -0.02294869 -0.0489598 -0.059815746 0.040779196
-0.09790097 -0.034921803 -0.017780168 -0.019825144 0.025410017 -0.070378944 0.016848883 0.06646004
-0.11384239 0.04516839 -0.090585954 -0.071974635 -0.05573668 0.049243074 -0.11728552 0.014422217
-0.05386811 -0.019938946 0.027633391 0.06731091 -0.11787273 0.006459334 -0.00037106642 0.024643827
0.0065606497 0.032900207 -0.11117217 -0.024768528 -0.09957876 -0.14480637 -0.0386354 0.019862596
0.057019345 0.04173413 0.022383556 -0.10673686 -0.012132241 0.045628905 0.052992355 0.049510278

linear2.bias f4 [79]
00000000: b1e5 f63c fcd4 30be 6d15 da3d f3bf 533e
00000010: 8f22 773c 01af 1bbd 00b7 cdbd 3623 213c
00000020: 6a7a f5bb 135b 94bd 63ab 0fbc 55f1 91bd
00000030: 497d 8c3d c0b4 33bc c929 90bd 80c1 d23c
00000040: 3c40 89bd ca56 9a3d ccc6 a6bc 5dec aa3d
00000050: 2b0d 93b9 bd98 573d 7c3c 54bd 1f86 ee3d
00000060: 639f 963c 8474 e23d 5023 9cbd c82c 16bc
00000070: 4d97 093c 96ee 533d 7d56 d13c a979 853d
00000080: 5401 d13d 51dc 963d e158 5f3d 6eb1 2cbd
00000090: 7aa5 b23b 4680 e0bc 4414 a0bc c612 4b3d
000000a0: 1615 323d 83c4 56bd 9b80 8cbd 9367 67bd
000000b0: 991d f6bb 7321 073d 52fb b83d 2df9 133d
000000c0: e6a0 02bd 7880 fbbb 4ddc 45bc 556d 9d3d
000000d0: 6ad1 9bbb 1e0c 12ba 0010 9dbd 184b a0bb
000000e0: a922 3abd 0e61 893d 533e 86bb f99c b13d
000000f0: 1e31 293d 7c78 773d 40ee a83c 32f4 1bbd
00000100: 5bb8 093d 1e53 cfbc cd74 4bbd b270 543c
00000110: 1c22 033c 0193 3a3d 1f06 3c3d 3030 d2bd
00000120: 0e8a 77bd ed9c a6bd b352 90bd bb7b 82bd
00000130: 9437 74bd 4662 0c3d 6c81 8c3d
0.030138822 -0.17268747 0.10648618 0.20678692 0.015083923 -0.038008694 -0.1004467 0.009835055
-0.0074913995 -0.072439335 -0.008768889 -0.071261086 0.06859834 -0.010968387 -0.0703922 0.025727034
-0.06701705 0.07536085 -0.020358466 0.08345864 -0.00028047836 0.052635897 -0.051815495 0.11646675
0.018386548 0.1105738 -0.07623923 -0.00916595 0.008397889 0.051741205 0.025553936 0.065173455
0.102053314 0.07366241 0.05452812 -0.042161398 0.0054518552 -0.027404916 -0.019540913 0.04957845
0.04347714 -0.052433502 -0.06860467 -0.05649526 -0.0075108525 0.032990884 0.090323105 0.036126304
-0.031891726 -0.007675227 -0.01207645 0.07686869 -0.0047551887 -0.00055712636 -0.076690674 -0.0048917644
-0.04544321 0.06707965 -0.004096785 0.08672518 0.041306607 0.060417637 0.020621419 -0.03807468
0.03362308 -0.025308188 -0.049671937 0.012966322 0.008003738 0.04555035 0.045904275 -0.10263097
-0.060434394 -0.081354 -0.070470236 -0.06371256 -0.059623316 0.03427341 0.06860623
