building and training a FFN for language modeling/4gram.pth (torch, 67002 bytes, 5 tensors)

embeddings.weight f4 [79, 10]
-1.3763616 -0.32300925 0.7716631 -2.2304406 0.90912217 -0.42703208 0.14990604 -1.9280086
-2.3989968 1.5340018 -1.0302063 3.2774723 2.244085 1.3641573 0.722347 1.0476153
-1.1099863 0.5871353 2.1683886 -1.0486405 -0.86883193 1.7017823 0.7350888 0.05572641
-0.3107272 -0.18155432 -0.39415345 0.39186057 -0.8741071 0.11787763 -0.37243655 2.5720177
-0.3077343 -1.2171091 1.097141 -2.6111016 0.93576866 -0.890066 0.96223766 -3.0540211
2.290671 -0.52178437 -1.036811 0.8490337 -1.7162315 1.7742105 -0.05124066 0.90710604
0.043330986 -0.5273171 0.960988 2.012321 -0.9839393 -0.050923765 -0.7324687 0.67833203
0.30066884 0.83506465 0.12570663 0.99255407 -0.9287521 -1.3784328 1.6171236 -0.09677603
-0.37565282 -0.4400837 -0.1966969 -0.54562956 -1.5706233 -0.004599879 1.8887007 -0.8638622
0.6010849 -0.4714556 0.98903793 -1.376763 1.6016144 -0.61018795 -0.107426465 0.16537715
-1.5237496 0.4892613 -1.3866018 -0.8399708 -0.39011312 0.8874827 -0.5493745 -0.6224273
-0.55056727 0.9498192 0.30580837 1.0753816 0.10079004 -0.21634755 0.46521097 0.48250735
-0.4490322 0.3229891 -0.072459824 -0.312084 -0.98754877 -0.08868302 1.0701696 -0.22834142
-1.979219 0.120016426 0.73355925 -0.4795189 0.65942353 -1.7436663 0.4307786 1.6137388
-1.5697837 0.26050493 1.9790356 -0.18190743 -0.7779912 -0.83561134 -0.1594881 -1.7415363
1.7828346 1.6297213 -0.56515396 -0.66766185 2.698004 1.3685699 2.2595212 0.11412646
0.62167686 1.0075895 -0.81102586 -0.8786674 0.57051146 -1.3220118 -0.7736884 2.4896367
-0.9968957 2.3243175 1.2200785 1.9576924 1.053946 1.8232921 -3.001243 -0.42481083
0.9477283 1.6380421 1.8404422 0.4405653 0.22888425 -0.54605126 -0.6707863 -0.86120874
-0.62920004 -0.9518375 -0.25287008 0.28481445 0.5570185 -0.46867377 -0.28819984 0.11215552
-0.8180308 0.9464191 0.020332541 0.87431693 1.7488638 -0.49209303 0.5088394 -1.1670556
-1.6210175 -1.5976797 -0.44389683 -0.112112306 -0.49486932 0.93022436 0.6679614 1.8985419
-0.24938336 1.1247314 -1.6731043 -0.77900165 0.8403381 -1.5097346 -1.5747664 1.3661598
0.48865226 -0.18564685 -1.8422991 0.6604341 -1.2271168 0.25393268 -0.24697094 -2.6289585
-1.4194854 0.4061186 0.30840954 1.001012 0.23532805 -0.42522874 -0.53370255 -1.2192692
0.16472195 -0.6634377 0.448594 -0.021865427 -0.6751626 0.2808803 -0.32099414 -0.79971445
-0.7102265 -2.0754564 -1.6674908 0.5236784 -0.9738364 -0.51444393 1.4039757 0.7308479
-0.07591283 0.7984892 2.051722 -0.034085743 -1.2006137 -0.4043295 0.68116605 -0.6204785
-0.40214393 -1.0335052 -0.37958702 -2.2700691 -1.3222375 0.9080158 -1.6598502 -0.23074892
-0.42734903 -0.91450495 1.1855526 -0.61614627 0.4704865 -0.3904275 1.439393 1.5568242
1.8461769 -2.276815 0.9439722 -0.6523943 -0.900523 0.88491756 1.3944689 0.12586357
-1.3048377 1.2435703 -1.5554428 -2.725582 -0.43762553 -0.2461279 -0.56714475 0.829396
00000000: 9e2c b0bf 7861 a5be b78b 453f 8abf 0ec0
00000010: 3bbc 683f f3a3 dabe f880 193e fcc8 f6bf
00000020: 2a89 19c0 2c5a c43f cddd 83bf 1bc2 5140
00000030: 179f 0f40 b59c ae3f bceb 383f 4218 863f
00000040: 0814 8ebf 804e 163f e1c6 0a40 da39 86bf
00000050: c56b 5ebf 01d4 d93f c82e 3c3f 6041 643d
00000060: a317 9fbe 60e9 39be 7bce c9be f3a1 c83e
00000070: 7cc5 5fbf d469 f13d 01b0 bebe f09b 2440
00000080: 5a8f 9dbe 3bca 9bbf 1e6f 8c3f 4a1c 27c0
00000090: 898e 6f3f 5edb 63bf 3555 763f 1575 43c0
000000a0: 5b9a 1240 a993 05bf 39b6 84bf 465a 593f
000000b0: 79ad dbbf 5419 e33f bae1 51bd 1a38 683f
000000c0: d57b 313d 41fe 06bf 4f03 763f dec9 0040
000000d0: 72e3 7bbf 7095 50bd 1283 3bbf 2ba7 2d3f
000000e0: 44f1 993e ccc6 553f 3db9 003e 0618 7e3f
000000f0: b3c2 6dbf 7c70 b0bf e8fd ce3f 8332 c6bd
00000100: 9155 c0be a752 e1be ea6a 49be 61ae 0bbf
00000110: 2f0a c9bf 95ba 96bb f2c0 f13f 1326 5dbf
00000120: b3e0 193f a162 f1be 9731 7d3f c539 b0bf
00000130: b301 cd3f 4735 1cbf 6802 dcbd a158 293e
00000140: 3a0a c3bf 7580 fa3e 2b7c b1bf 5408 57bf
00000150: e8bc c7be 1132 633f cfa3 0cbf 6557 1fbf
00000160: faf1 0cbf 5a27 733f ea92 9c3e 1ba6 893f
00000170: 026b ce3d 368a 5dbe 2230 ee3e 340b f73e
00000180: 8ce7 e5be d45e a53e d165 94bd 79c9 9fbe
00000190: ffcf 7cbf 719f b5bd 51fb 883f 55d2 69be
000001a0: 0c57 fdbf 2ccb f53d 8aca 3b3f 8083 f5be
000001b0: fbcf 283f 7530 dfbf 038f dc3e fe8e ce3f
000001c0: acee c8bf e760 853e 0a51 fd3f f145 3abe
000001d0: 6e2a 47bf a0ea 55bf d950 23be a9ea debf
000001e0: ed33 e43f b59a d03f eead 10bf e3eb 2abf
000001f0: 19ac 2c40 4c2d af3f ff9b 1040 22bb e93d
00000200: 3726 1f3f b1f8 803f 649f 4fbf 59f0 60bf
00000210: 0a0d 123f af37 a9bf 7110 46bf 3556 1f40
00000220: 8e34 7fbf 9ec1 1440 882b 9c3f aa95 fa3f
00000230: b4e7 863f a361 e93f 5e14 40c0 ce80 d9be
00000240: 529e 723f 5dab d13f 9c93 eb3f c691 e13e
00000250: a260 6a3e 04ca 0bbf a7b8 2bbf 2d78 5cbf
00000260: 4113 21bf 9fab 73bf 3078 81be 33d3 913e
00000270: c498 0e3f 02f6 efbe ee8e 93be cbb1 e53d
00000280: 776a 51bf 8648 723f 6e90 a63c 3cd3 5f3f
00000290: c5da df3f 9ef3 fbbe 4d43 023f 1462 95bf
000002a0: 807d cfbf c580 ccbf 7246 e3be 239b e5bd
000002b0: 835f fdbe 2f23 6e3f 85ff 2a3f 6c03 f33f
000002c0: 5a5e 7fbe 33f7 8f3f 4828 d6bf a76c 47bf
000002d0: 6620 573f fc3e c1bf f291 c9bf 53de ae3f
000002e0: a130 fa3e 351a 3ebe 75d0 ebbf 3612 293f
000002f0: 2a12 9dbf 7703 823e f3e5 7cbe db40 28c0
00000300: b3b1 b5bf c7ee cf3e dbe7 9d3e 2921 803f
00000310: d6f9 703e 95b7 d9be bba0 08bf 0311 9cbf
00000320: dfac 283e 0ed7 29bf 1dae e53e 201f b3bc
00000330: 75d7 2cbf 8bcf 8f3e 5859 a4be 16ba 4cbf
00000340: 67d1 35bf 47d4 04c0 5770 d5bf ca0f 063f
00000350: 584d 79bf 99b2 03bf 7ab5 b33f d918 3b3f
00000360: 3078 9bbd ca69 4c3f 6a4f 0340 7e9d 0bbd
00000370: b6ad 99bf 4704 cfbe e660 2e3f aed7 1ebf
00000380: cfe5 cdbe e649 84bf 3b59 c2be d048 11c0
00000390: 143f a9bf b973 683f f975 d4bf 7249 6cbe
000003a0: 7ecd dabe ff1c 6abf 30c0 973f c3bb 1dbf
000003b0: 9be3 f03e 1de6 c7be 083e b83f 0446 c73f
000003c0: 864f ec3f 56b7 11c0 29a8 713f 5003 27bf
000003d0: ad88 66bf f589 623f f57d b23f 61e2 003e
000003e0: ec04 a7bf 502d 9f3f c018 c7bf ef6f 2ec0
000003f0: 7410 e0be f408 7cbe 6630 11bf 4c53 543f

linear1.weight f4 [128, 40]
-0.016520303 -0.07405111 0.0028870092 -0.023308674 -0.12704782 0.20076652 -0.10846229 -0.017929783
-0.010290282 -0.06901915 0.094457336 -0.09598192 -0.08670956 0.083301835 0.12758945 0.08003061
0.043679208 -0.18341228 -0.29941308 -0.032039832 -0.05306151 0.17135057 -0.098808505 -0.19208702
0.051377427 -0.1632453 0.116069496 -0.17120528 -0.30347538 0.23947684 0.13320494 -0.1245168
-0.2536091 0.08318126 0.14150128 -0.15585066 -0.32294533 0.117167026 -0.114860095 -0.09715283
0.0676169 0.0464459 -0.014825506 0.18123916 -0.1276863 -0.09744695 0.08011333 -0.13626568
0.09952838 0.026881954 -0.11909266 0.06354534 -0.14921027 -0.00037960903 -0.05150133 0.13385908
-0.13766734 0.13873109 0.1439918 -0.25949258 0.060436353 0.04143068 -0.09095037 0.20639406
0.00085719506 0.037491653 -0.16310683 0.0012433985 -0.021958664 0.120731674 -0.06537851 -0.06845373
-0.2145013 0.005037928 -0.17736402 0.007246513 -0.072768174 0.15365475 0.091827996 0.15451306
0.057428505 0.14688963 -0.16517588 0.0855925 0.027556306 -0.15968898 0.006357959 -0.017509049
0.15350969 0.18697448 -0.076453194 0.093935505 -0.029080816 0.006884249 -0.15461613 0.023573568
0.1204038 -0.20082626 -0.10021317 0.1457908 0.084538475 -0.090764426 0.074473925 -0.0059414306
0.05188886 0.08221936 0.04995804 -0.08043117 0.052292198 0.1228792 0.28174573 -0.19170478
0.012922921 0.12631606 0.1649004 0.19612803 -0.14921528 0.16776486 -0.05462934 0.04788486
0.067555025 -0.121259205 0.03498006 -0.13190171 -0.040374495 -0.051092386 -0.06736691 0.079056606
0.08345032 -0.04763231 0.079366274 -0.1357516 -0.08599158 0.092184365 0.17179498 0.08982597
-0.0551555 0.09613894 -0.06470995 -0.027154092 -0.20146316 0.21985416 0.050517038 -0.12942919
0.07356938 -0.11443048 -0.1687867 -0.1792865 0.12248505 0.098401845 0.0011021498 0.12852772
0.19721209 -0.09398748 -0.24426568 0.22003064 0.06357097 -0.24689637 0.08438865 -0.02523623
-0.14973731 0.28049374 -0.05644443 0.15184918 -0.08269182 -0.023330223 -0.1599706 -0.014192976
0.075127505 0.08582679 -0.13498574 -0.083106816 0.15617274 0.079212785 0.0682532 0.16049643
0.07598493 -0.036554463 -0.29546925 -0.14520219 -0.10357691 0.1339027 -0.14250329 0.06321113
-0.18232864 0.03255706 -0.07695391 0.16251138 -0.06473484 0.08257772 0.043611627 0.091198474
-0.193572 -0.18766566 -0.19561101 0.12511389 0.10772049 0.22498459 -0.13083719 -0.00792024
-0.0062416676 -0.15168966 0.08219142 0.08398593 -0.12013529 0.117667645 -0.05148579 0.1657162
0.01794421 -0.13141036 0.114119306 0.028566645 -0.12670392 -0.054980077 -0.008086378 -0.2121929
0.07182895 -0.05656884 0.06019042 0.10026546 -0.09966029 -0.16668372 0.120152436 -0.19357993
0.14137007 0.13711879 -0.13567728 0.10377639 0.08371777 0.10002463 0.07388622 -0.025482088
0.047493868 -0.060076814 -0.108585216 -0.023968643 -0.11921434 -0.07754053 0.028018743 -0.103967994
0.07110258 -0.042897288 -0.060503058 -0.100925885 -0.09613034 0.12223538 0.19266292 -0.18757685
-0.10402328 -0.0022815787 0.10006661 -0.12810993 0.21271716 -0.17229612 -0.2396085 -0.019441683
00000000: 9655 87bc 1ca8 97bd fa33 3d3b d5f1 bebc
00000010: d318 02be bd95 4d3e 7a21 debd 7be1 92bc
00000020: 9298 28bc ea59 8dbd d972 c13d 2b92 c4bd
00000030: c894 b1bd 279a aa3d cfa6 023e 17e7 a33d
00000040: f8e8 323d 6ed0 3bbe ac4c 99be 333c 03bd
00000050: 0757 59bd 8676 2f3e 1d5c cabd 76b2 44be
00000060: 2371 523d c729 27be d8b5 ed3d 7050 2fbe
00000070: 2061 9bbe 6b39 753e e066 083e aa02 ffbd
00000080: 0dd9 81be f05a aa3d b6e5 103e 5197 1fbe
00000090: 1759 a5be 44f5 ef3d c53b ebbd 10f8 c6bd
000000a0: bb7a 8a3d 0e3e 3e3d aee6 72bc c296 393e
000000b0: 33c0 02be 4492 c7bd 7512 a43d 3b89 0bbe
000000c0: 89d5 cb3d 8b37 dc3c dae6 f3bd 0f24 823d
000000d0: 94ca 18be 4306 c7b9 0ff3 52bd 5b12 093e
000000e0: abf8 0cbe 860f 0e3e 9672 133e 36dc 84be
000000f0: 1c8c 773d 37b3 293d 3044 babd f758 533e
00000100: 63b5 603a d990 193d 7a05 27be 88f9 a23a
00000110: a8e2 b3bc 2b42 f73d 2be5 85bd 7831 8cbd
00000120: 3ba6 5bbe 3415 a53b ea9e 35be 2874 ed3b
00000130: 7b07 95bd ac57 1d3e 5110 bc3d ac38 1e3e
00000140: 273a 6b3d 3c6a 163e de23 29be 1f4b af3d
00000150: c3bd e13c 8285 23be 6d56 d03b 236f 8fbc
00000160: a531 1d3e 3d76 3f3e 7e93 9cbd 4261 c03d
00000170: e43a eebc 4495 e13b b153 1ebe 5b1d c13c
00000180: 4496 f63d 66a5 4dbe 903c cdbd 2f4a 153e
00000190: 8222 ad3d b3e2 b9bd c985 983d 55b0 c2bb
000001a0: 6a89 543d a062 a83d cda0 4c3d 19b9 a4bd
000001b0: 5830 563d 17a8 fb3d fa40 903e 424e 44be
000001c0: a9ba 533c ff58 013e a7db 283e c9d5 483e
000001d0: e4cb 18be 8dca 2b3e 04c3 5fbd ea22 443d
000001e0: 4a5a 8a3d bf56 f8bd 4047 0f3d 3e11 07be
000001f0: ba5f 25bd 4046 51bd aaf7 89bd 6ee8 a13d
00000200: 00e8 aa3d 191a 43bd c98a a23d 7802 0bbe
00000210: 5a1c b0bd 28cb bc3d 06eb 2f3e aef6 b73d
00000220: bcea 61bd 7ee4 c43d a686 84bd 4272 debc
00000230: 5c4c 4ebe 7321 613e f4ea 4e3d 1689 04be
00000240: 8bab 963d 875a eabd 6cd6 2cbe e196 37be
00000250: 71d9 fa3d e886 c93d 0376 903a c59c 033e
00000260: f7f1 493e 827c c0bd c820 7abe b64f 613e
00000270: 7f31 823d 67d2 7cbe f5d3 ac3d 36bc cebc
00000280: bd54 19be e09c 8f3e 4632 67bd 5a7e 1b3e
00000290: 545a a9bd 061f bfbc 55cf 23be a889 68bc
000002a0: 73dc 993d f5c5 af3d b439 0abe e833 aabd
000002b0: bfeb 1f3e 503a a23d 55c8 8b3d 2d59 243e
000002c0: fd9d 9b3d 22ba 15bd bf47 97be e2af 14be
000002d0: 2220 d4bd ca1d 093e 62ec 11be d674 813d
000002e0: 5cb4 3abe 8d5a 053d 039a 9dbd 6269 263e
000002f0: b393 84bd 821e a93d 1ba2 323d 44c6 ba3d
00000300: bd37 46be 6d2b 40be 414e 48be db1d 003e
00000310: 8f9c dc3d 5c62 663e 2ffa 05be e5c3 01bc
00000320: e786 ccbb 8954 1bbe fa53 a83d d100 ac3d
00000330: 7e09 f6bd bcfb f03d c4e2 52bd 82b1 293e
00000340: bcff 923c 7090 06be 62b7 e93d 9904 ea3c
00000350: acbe 01be ca32 61bd ba7c 04bc 1849 59be
00000360: 0e1b 933d bab4 67bd 3b8a 763d fa57 cd3d
00000370: b21a ccbd 23af 2abe 7b12 f63d d139 46be
00000380: 51c3 103e de68 0c3e fcee 0abe b788 d43d
00000390: 3974 ab3d b7d9 cc3d a951 973d d0bf d0bc
000003a0: ee88 423d 1b13 76bd ed61 debd e359 c4bc
000003b0: a626 f4bd 92cd 9ebd 9087 e53c 2ced d4bd
000003c0: 3b9e 913d 11b5 2fbd 0ed2 77bd 3bb2 cebd
000003d0: fcdf c4bd 8b56 fa3d 6e49 453e 2514 40be
000003e0: 280a d5bd 8a86 15bb b9ef cc3d 402f 03be
000003f0: 87d2 593e 656e 30be ee5b 75be 2a44 9fbc

linear1.bias f4 [128]
-0.095758714 0.06087378 -0.014003598 0.046036035 0.19958313 -0.111512214 0.100947514 0.19128056
0.12766019 0.031657267 0.16208488 0.17438602 0.22105668 0.061363153 0.22882855 0.16830845
0.1986399 0.14383164 0.11136587 0.0075938227 0.08552613 0.016851595 0.057483308 0.124487884
-0.14843352 0.23942176 0.22475049 0.12420659 0.097686365 0.044604715 0.06640122 -0.055900827
0.22450732 0.19516875 0.030322665 0.1095866 0.02236706 0.22226298 -0.048589684 -0.03453817
0.14674142 -0.029411003 0.13034369 0.26465124 0.221546 0.0255153 0.20232035 0.14949365
-0.022787612 0.2369634 -0.095643826 0.2697317 -0.0009956275 0.11614817 0.088403195 -0.008536843
0.053424932 -0.07828209 0.18409052 0.18716274 0.05872219 0.058477134 -0.0025244448 0.21939954
0.03855212 0.05253206 0.02667583 0.24567042 0.08830793 -0.034748834 0.2486608 0.096763015
-0.001501827 -0.018376334 0.15985906 0.30067524 0.03900537 0.08082301 0.19455604 0.17733301
0.1087325 0.113061674 0.17486756 0.056772955 -0.07206416 -0.0875286 -0.041213784 0.19717877
-0.0016855714 0.12040099 0.13116851 0.12014148 0.2630338 0.25650638 0.23089902 -0.049635157
0.20350453 0.10673621 0.013533968 0.17120895 0.106629126 -0.064225994 0.06967803 0.15012349
-0.06627775 0.035283286 -0.048611093 0.25684276 0.08152884 0.24754019 0.10527128 0.18436381
-0.0505146 0.11302626 0.18808734 -0.0157151 0.03809898 -0.12938541 0.22487436 0.24143642
-0.04047965 0.12336013 0.023815203 0.1275066 -0.0069187884 0.09781291 0.16999082 0.13385874
00000000: 251d c4bd c956 793d 596f 65bc 4890 3c3d
00000010: 855f 4c3e 8460 e4bd 92bd ce3d 0ddf 433e
00000020: 5ab9 023e 0dab 013d 94f9 253e 4092 323e
00000030: af5c 623e ee57 7b3d 0852 6a3e 0d59 2c3e
00000040: 4268 4b3e 9a48 133e ca13 e43d 9ad5 f83b
00000050: 5328 af3d 5b0c 8a3c 9e73 6b3d 81f3 fe3d
00000060: f5fe 17be fa2a 753e fe24 663e 0660 fe3d
00000070: ca0f c83d 6fb3 363d 5dfd 873d 44f8 64bd
00000080: 3fe5 653e 51da 473e 3d67 f83c f06e e03d
00000090: 203b b73c e898 633e fa05 47bd e577 0dbd
000000a0: 6243 163e 58ef f0bc d178 053e 5e80 873e
000000b0: f4dc 623e 7605 d13c 112d 4f3e dd14 193e
000000c0: 16ad babc 89a6 723e e9e0 c3bd 461a 8a3e
000000d0: b77f 82ba 17df ed3d bc0c b53d 1dde 0bbc
000000e0: 1ad4 5a3d 5c52 a0bd 3a82 3c3e 97a7 3f3e
000000f0: ae86 703d b885 6f3d 2871 25bb 46aa 603e
00000100: d4e8 1d3d db2b 573d 4587 da3c 0791 7b3e
00000110: cada b43d cb54 0ebd f0a0 7e3e b02b c63d
00000120: f4d8 c4ba f789 96bc 18b2 233e 1bf2 993e
00000130: 18c4 1f3d 8986 a53d b339 473e c996 353e
00000140: 25af de3d e18c e73d 7b10 333e c28a 683d
00000150: 6096 93bd 3242 b3bd c9cf 28bd 3be9 493e
00000160: 64ee dcba cb94 f63d 0a51 063e bc0c f63d
00000170: 5eac 863e ce54 833e cb70 6c3e 3c4e 4bbd
00000180: 7e63 503e 8498 da3d 93bd 5d3c 6651 2f3e
00000190: 5f60 da3d eb88 83bd 5bb3 8e3d f9b9 193e
000001a0: a1bc 87bd 3585 103d 6d1c 47bd e580 833e
000001b0: 98f8 a63d 2d7b 7d3e 7898 d73d dec9 3c3e
000001c0: 66e8 4ebd 507a e73d f899 403e f4bc 80bc
000001d0: ad0d 1c3d 9c7d 04be 7745 663e 1c3b 773e
000001e0: fdcd 25bd 3ca4 fc3d 1a18 c33c 1791 023e
000001f0: 01b7 e2bb 2352 c83d 1312 2e3e 4412 093e

linear2.weight f4 [79, 128]
-0.13260017 -0.09105969 -0.1257822 -0.1659223 -0.13634595 -0.10642461 -0.2805174 0.16437607
-0.18223636 0.01949722 -0.1423794 0.07757777 0.13376515 0.06601671 -0.16224082 -0.04828302
-0.018416066 0.15243542 0.080210835 0.03825244 -0.3170162 -0.019908039 0.5081189 -0.22817887
0.06357375 0.07129765 -0.14908521 0.32239673 -0.06592153 -0.09402181 0.08051926 0.123198114
0.14393187 -0.005446611 -0.08404049 0.16033223 0.004807436 -0.07906509 0.36884797 -0.04274272
0.026215054 0.13515979 0.24563532 -0.14172877 -0.011167799 -0.1681685 0.36269307 -0.07272164
0.011070968 -0.07320437 -0.03153592 -0.2431421 0.15594271 0.15668581 -0.024310285 0.0702996
0.27230576 -0.052587308 0.34387726 0.06000998 -0.21955943 0.010843492 0.12928227 0.011598304
0.005286103 -0.09353552 0.24683838 0.0010089274 -0.13102289 0.07490727 0.033264827 -0.006479442
-0.00031379765 0.567439 0.0697724 0.20097364 0.10687929 -0.014921137 0.079266176 -0.013962169
-0.09052035 -0.23236044 0.11827112 -0.077330425 -0.03465203 -0.028658038 0.33197272 0.03020223
-0.18566556 0.04183545 -0.2140766 -0.1452915 -0.23754293 0.15985286 0.2818224 0.101726614
0.044855464 0.05277374 -0.07767339 0.0072492952 0.06008253 -0.12575676 0.15042265 0.13666162
0.17088781 -0.13613264 0.36345172 0.021794604 -0.28204766 -0.061293792 -0.034924176 0.33619022
0.12228407 0.0074638715 -0.019944195 -0.028966581 -0.073591776 0.0031813676 0.017387008 0.021049885
-0.030237904 0.18531866 0.07453452 0.32554224 0.114777684 0.10342588 -0.108103745 0.44458944
0.0024950325 0.067468844 -0.06563129 0.030096453 0.021842403 -0.0007251441 0.027182845 -0.089605466
0.029653642 -0.094890624 -0.00839178 -0.00863894 -0.026486818 -0.006299863 -0.05567696 -0.015257135
0.009097594 -0.089655146 -0.043483686 -0.08746893 -0.05912551 -0.10606093 -0.04755649 -0.000593115
-0.014197353 -0.015284525 -0.010265299 -0.069242574 -0.025205996 -0.07708188 0.029038262 -0.03339782
-0.023181673 -0.020574225 0.051628675 -0.080920584 -0.0523943 -0.10402001 0.0013818757 -0.08681414
-0.09561528 -0.0055959015 -0.022704875 -0.097262114 -0.06286304 -0.004044793 0.04939398 0.02384978
0.006205347 -0.0878211 -0.057477262 -0.0026406534 -0.0006115128 -0.047293086 -0.088418454 -0.026860455
0.008836477 -0.045076564 -0.027262503 0.006858185 -0.042692803 -0.03390824 -0.08603259 0.05903588
-0.045769375 0.0020722176 -0.09620396 -0.08539495 -0.045792475 -0.04910254 -0.017959192 -0.00962526
-0.06824685 -0.06966824 0.011565919 0.06544943 0.048264787 0.004494546 -0.07031767 -0.0798141
-0.007878704 0.04527077 -0.020445226 -0.0027874957 0.051592264 0.012738989 -0.05272921 -0.031607207
-0.037711322 0.0009433482 0.046853382 -0.09336112 0.027705727 0.0063450276 0.002612203 -0.015268526
-0.019159885 -0.048083793 -0.09284225 -0.10602618 0.05254526 0.06982436 -0.07345066 0.05091715
0.034378503 -0.032392737 0.06622707 -0.009377243 0.054407205 -0.05457599 -0.0641451 0.01954025
0.04279092 -0.01877511 0.06794734 -0.004097592 0.059726756 0.07516446 -0.047666814 -0.0662673
-0.007160663 -0.10986973 0.02773992 -0.09343072 -0.038806837 -0.026571315 0.065106496 -0.00030515002
00000000: 57c8 07be 817d babd 0dcd 00be 89e7 29be
00000010: 469e 0bbe 25f5 d9bd fa9f 8fbe 3352 283e
00000020: 2b9c 3abe a2b8 9f3c e8cb 11be 18e1 9e3d
00000030: bbf9 083e c533 873d 7522 26be 6ac4 45bd
00000040: 4add 96bc 0818 1c3e 9445 a43d 97ae 1c3d
00000050: f34f a2be 2f16 a3bc 1514 023f b9a7 69be
00000060: f432 823d 8104 923d cba9 18be 2f11 a53e
00000070: de01 87bd 828e c0bd 48e7 a43d 4b4f fc3d
00000080: e062 133e 7c79 b2bb 6c1d acbd 222e 243e
00000090: b287 9d3b e1ec a1bd a4d9 bc3e fe12 2fbd
000000a0: f4c0 d63c 5467 0a3e d387 7b3e 5921 11be
000000b0: 25f9 36bc 5d34 2cbe e8b2 b93e 15ef 94bd
000000c0: 0163 353c 2cec 95bd cf2b 01bd 3efa 78be
000000d0: 72af 1f3e 3f72 203e 5d26 c7bc 3df9 8f3d
000000e0: a96b 8b3e ca65 57bd ae10 b03e 06cd 753d
000000f0: 30d4 60be e7a8 313c 9262 043e d006 3e3c
00000100: 0c37 ad3b 8d8f bfbd 33c3 7c3e fc3d 843a
00000110: dd2a 06be fc68 993d b340 083d 8051 d4bb
00000120: 3585 a4b9 af43 113f d5e4 8e3d 09cc 4d3e
00000130: 87e3 da3d c977 74bc 4e56 a23d 95c1 64bc
00000140: bc62 b9bd e5ef 6dbe 2138 f23d 6a5f 9ebd
00000150: 49ef 0dbd 43c4 eabc 54f8 a93e ab6a f73c
00000160: 1d1f 3ebe a65b 2b3d e536 5bbe 4cc7 14be
00000170: 743e 73be 78b0 233e 074b 903e 0b56 d03d
00000180: 5dba 373d 4729 583d 3a13 9fbd 7f8b ed3b
00000190: 1919 763d 61c6 00be 6508 1a3e 06f1 0b3e
000001a0: 37fd 2e3e 5b66 0bbe 5816 ba3e 998a b23c
000001b0: 8d68 90be 330f 7bbd a70c 0fbd 2021 ac3e
000001c0: 1270 fa3d 7e93 f43b 0262 a3bc 534b edbc
000001d0: 49b7 96bd 7e7e 503b 336f 8e3c cf70 ac3c
000001e0: 7bb5 f7bc 2dc4 3d3e 8ea5 983d 79ad a63e
000001f0: 9010 eb3d f3d0 d33d 7f65 ddbd 3aa1 e33e
00000200: b383 233b 1b2d 8a3d b369 86bd d68c f63c
00000210: d7ee b23c 9917 3eba 8fae de3c 1283 b7bd
00000220: 32ec f23c 0456 c2bd ad7d 09bc 578a 0dbc
00000230: e2fa d8bc 156f cebb 860d 64bd 10f9 79bc
00000240: 130e 153c 1e9d b7bd f31b 32bd e922 b3bd
00000250: 972d 72bd 7936 d9bd 98ca 42bd 467b 1bba
00000260: 049c 68bc f26b 7abc c92f 28bc 0dcf 8dbd
00000270: ce7c cebc 1bdd 9dbd a6e1 ed3c 27cc 08bd
00000280: 7ee7 bdbc 478b a8bc 9778 533d b1b9 a5bd
00000290: 689b 56bd 7108 d5bd 0e20 b53a 9dcb b1bd
000002a0: f2d1 c3bd d35d b7bb 93ff b9bc 5c31 c7bd
000002b0: 56be 80bd 2f8a 84bb 5851 4a3d 9d60 c33c
000002c0: 3956 cb3b 8ddb b3bd 476d 6bbd d00e 2dbb
000002d0: ee4d 20ba 65b6 41bd bc14 b5bd 750a dcbc
000002e0: dfc6 103c 34a2 38bd 9d55 dfbc a0ba e03b
000002f0: a6de 2ebd 5ee3 0abd db31 b0bd 9bcf 713d
00000300: ab78 3bbd 0bce 073b 9506 c5bd 8ce3 aebd
00000310: e490 3bbd bf1f 49bd 281f 93bc 44b3 1dbc
00000320: 01c5 8bbd 39ae 8ebd fb7e 3d3c 5a0a 863d
00000330: 4cb1 453d fc46 933b b602 90bd 9375 a3bd
00000340: ae15 01bc d86d 393d bf7c a7bc 6bae 36bb
00000350: 6952 533d 31b7 503c 96fa 57bd 8f76 01bd
00000360: 3077 1abd 074b 773a 55e9 3f3d 1d34 bfbd
00000370: 1ff7 e23c f3e9 cf3b 7e31 2b3b d728 7abc
00000380: 31f5 9cbc 83f3 44bd 1424 bebd 4124 d9bd
00000390: b339 573d 1300 8f3d 4d6d 96bd 808e 503d
000003a0: 79d0 0c3d 3fae 04bd 0fa2 873d 02a3 19bc
000003b0: 17da 5e3d 138b 5fbd 825e 83bd e012 a03c
000003c0: 8845 2f3d 42ce 99bc fa27 8b3d 1845 86bb
000003d0: 0ba4 743d d3ef 993d 473e 43bd 26b7 87bd
000003e0: ffa3 eabb 6203 e1bd d43e e33c 9b58 bfbd
000003f0: ebf3 1ebd 16ac d9bc 8e56 853d 8bfc 9fb9

linear2.bias f4 [79]
0.034766212 -0.15065563 -0.054921955 0.10629405 0.10075565 -0.006405929 -0.1291369 -0.08981402
-0.025121776 0.023593828 0.044900328 -0.0654021 0.0033528078 -0.14434192 -0.058961783 -0.070598416
-0.050752226 -0.08998183 -0.00913783 -0.03221615 0.10176521 -0.010996261 0.12909213 0.0050843656
-0.05891391 0.14157243 0.0023441978 -0.044256333 0.005024483 -0.017647127 0.018138433 0.052517783
0.03956341 0.00064280117 -0.051969025 0.006657854 -0.02328349 0.044293273 0.026689067 0.06941493
-0.0349552 -0.11305834 -0.09311552 -0.10507666 -0.08756913 0.018465038 0.017340323 0.006007536
0.07949774 -0.11207098 0.02780583 -0.03082198 -0.046076752 -0.009592723 -0.04237509 0.092250824
0.0067959665 0.06794134 0.02787512 -0.12635674 -0.05655155 -0.047607258 -0.11709256 -0.03234988
0.13210118 0.029772757 -0.09870347 -0.020175712 -0.10702745 -0.02617822 0.043032303 -0.1384092
0.03559298 0.045858413 0.009667997 -0.009410771 0.026027735 0.048461057 -0.110433735
00000000: 0467 0e3d 7845 1abe d8f5 60bd b2b0 d93d
00000010: fa58 ce3d d4e8 d1bb 773c 04be 6af0 b7bd
00000020: 2fcc cdbc d847 c13c 68e9 373d 89f1 85bd
00000030: c8ba 5b3b 5ece 13be e981 71bd e795 90bd
00000040: 91e1 4fbd 6548 b8bd d6b6 15bc 15f5 03bd
00000050: 476a d03d a929 34bc ba30 043e c09a a63b
00000060: b64f 71bd 5df8 103e 1da1 193b 2146 35bd
00000070: 6ba4 a43b b590 90bc 0d97 943c e31c 573d
00000080: 3e0d 223d a881 283a 79dd 54bd 212a da3b
00000090: 05bd bebc dd6c 353d 08a3 da3c 6a29 8e3d
000000a0: 2f2d 0fbd 228b e7bd 5ab3 bebd 6f32 d7bd
000000b0: 7257 b3bd fe43 973c 4b0d 8e3c ddda c43b
000000c0: b6cf a23d 7885 e5bd 0dc9 e33c 617e fcbc
000000d0: faba 3cbd cc2a 1dbc 8191 2dbd 00ee bc3d
000000e0: b3b0 de3b d424 8b3d 5d5a e43c a963 01be
000000f0: 99a2 67bd d4ff 42bd 39ce efbd 4f81 04bd
00000100: 8845 073e ffe5 f33c 0b25 cabd 8947 a5bc
00000110: 3531 dbbd b573 d6bc a442 303d 24bb 0dbe
00000120: f2c9 113d 08d6 3b3d 8566 1e3c a22f 1abc
00000130: 1e38 d53c 1a7f 463d 152b e2bd
