building and training a FFN for language modeling/8gram.pth (torch, 87482 bytes, 5 tensors)

embeddings.weight f4 [79, 10]
000000 62 a4 dd be 53 21 1b bf 83 92 85 3f b2 8c f3 be
       -0.43289477 -0.60597724 1.0435337 -0.4756828
000010 d1 6d 98 bf a6 bb 5e 40 5a fd 5d bd bf 9c 5c 40
       -1.1908513 3.4802032 -0.054196693 3.447067
000020 63 34 16 bf 39 d3 00 bf ef 0c 8b 3c 27 aa 4e bf
       -0.58673686 -0.503223 0.01697394 -0.8072838
000030 93 cc 59 bf c1 3b 88 3f c0 01 d3 be 51 98 c8 be
       -0.8507778 1.0643235 -0.41212273 -0.39178708
000040 4f 08 08 c0 9e 16 18 3f 0a 49 13 3f c0 ea de bd
       -2.125507 0.5940951 0.57533324 -0.10884619
000050 b7 61 b4 bf d9 65 71 bf 26 f6 e0 be 7c 04 86 3f
       -1.409232 -0.9429603 -0.43937796 1.0470119
000060 20 b5 a7 3f 64 cf b2 3f 2a 38 f7 3e 8b cc 0f 40
       1.310215 1.396954 0.48285037 2.2468593
000070 e2 28 e3 3e db 26 93 be c7 42 8a bd a9 14 c1 be
       0.4436713 -0.28740582 -0.06751018 -0.37711075
000080 02 08 01 3f ad c7 9d 3e b9 46 3a 3d 34 07 1d bf
       0.50402844 0.30816403 0.045477603 -0.61339116
000090 61 35 0d 3f bf 64 63 3f ec 66 ee 3e 52 79 3f 3d
       0.55159575 0.888256 0.46562898 0.04674656
0000a0 0e 4e 61 3f db 9d e9 be bd 84 e5 bf f8 97 dd be
       0.88009727 -0.45628247 -1.7931134 -0.43280005
0000b0 b8 cc 06 bf ac bb f8 3e dc 32 0a 40 72 a9 89 3f
       -0.52656126 0.48580682 2.1593542 1.0754836
0000c0 5d 24 75 3f ea 18 59 3f ac 6d 81 be 37 d8 13 3f
       0.9575861 0.8480364 -0.25278986 0.5775179
0000d0 cd e6 e2 be 73 9d a6 3f d2 eb fe be f5 e0 2d 3f
       -0.44316712 1.30168 -0.49789292 0.6792138
0000e0 93 c0 4b 3f 9a 11 2e 3f 06 19 d8 3f 31 98 1d 3e
       0.7959072 0.6799561 1.6882637 0.15390088
0000f0 4c 09 8f 3f 0f 11 30 3f 09 58 4a 3f b9 29 89 3e
       1.1174712 0.6877603 0.7904058 0.26789644
000100 61 94 f6 bf 97 42 8a 3e ca df 2b c0 65 ed f2 be
       -1.9264032 0.2700393 -2.685534 -0.47446743
000110 6d 4b 4d bf 17 bf 10 3e 93 bd e5 bf 26 03 2d bf
       -0.80193216 0.14135395 -1.7948478 -0.6758293
000120 29 8e 0f 40 23 7e 66 be 8f 53 31 bd ee 4b a9 be
       2.2430518 -0.22509055 -0.04329258 -0.33065742
000130 5c bd ae be 14 cb 92 3f 9f ef 09 bf be 72 b8 3e
       -0.34128845 1.1468225 -0.5388126 0.3602504
000140 02 35 5f bf cd 75 e2 be 1a f3 98 bd ea c3 0c 3f
       -0.8719026 -0.442305 -0.07468243 0.5498644
000150 55 7e 69 3f 50 16 c7 bd f1 d0 2b 3f c5 d9 b9 bf
       0.9120839 -0.09721053 0.67115694 -1.4519583
000160 15 ac a9 bc b1 0f 12 bf 61 5a 6d bf da 21 45 bf
       -0.020711938 -0.57055193 -0.9271603 -0.7700478
000170 67 21 dc be 1f 1b 06 40 dc 96 a2 3f d6 b2 d4 3e
       -0.42994234 2.0954053 1.2702289 0.4154269
000180 65 f8 a7 bf 61 e7 d0 3f 95 b3 58 be 11 86 10 3f
       -1.3122679 1.6320611 -0.21162255 0.5645457
000190 a2 a5 13 3f de db a8 be 66 e5 80 3d 81 4f ae be
       0.5767461 -0.32980245 0.06293754 -0.34045032
0001a0 b1 59 90 bf 92 0f 10 40 de 7c a9 be 09 b8 6a 3f
       -1.1277372 2.2509503 -0.3310308 0.91687065
0001b0 18 b1 83 be f4 4a 76 3f 87 17 85 3e 0e a3 92 3f
       -0.2572105 0.9620812 0.25994512 1.145601
0001c0 62 92 5e bf 37 b4 00 bf 56 ec 2b bc 60 31 af be
       -0.8694211 -0.50274986 -0.010493359 -0.34217358
0001d0 da 78 53 3f 83 92 a8 bf 43 de bc 3e b4 ad c6 3e
       0.8260628 -1.3169712 0.36888322 0.388044
0001e0 8e 02 ff bf dc 82 f1 bf d5 dd 3d 3f b9 87 93 bf
       -1.9922655 -1.886806 0.74166614 -1.1525794
0001f0 0f b5 95 be 4b 88 e1 3e da d1 25 3f ba 70 af 3f
       -0.292397 0.44049296 0.64773333 1.3706276
000200 07 36 94 bf 9e 37 04 c0 2e f5 1b 3e ba 6b 5b bf
       -1.1578988 -2.0658946 0.15230247 -0.8571125
000210 3f 3a 94 be e6 44 29 be a4 e4 e5 be 22 60 67 3f
       -0.28950688 -0.16530189 -0.44901 0.9038106
000220 f7 00 f3 bf 7f a4 0d 3f 7b 82 e4 3e a8 19 9c 3f
       -1.898467 0.55329126 0.446308 1.219533
000230 d3 5b bd 3f 82 f9 ba 3e 6f 7d 89 be 3f 32 8c bf
       1.4793648 0.36518484 -0.2685351 -1.0952834
000240 91 25 85 be f7 50 56 bf b9 05 02 40 1b f5 af be
       -0.26005223 -0.8371729 2.0315993 -0.34366688
000250 ca f2 bf 3e cd 1f f7 bd ac 0d fc 3e bb 1d 8d 3f
       0.3748992 -0.120666124 0.4922918 1.1024698
000260 f9 61 23 bf 42 0f db bf 82 70 28 bf ad 8b 3e 3f
       -0.6382137 -1.7114031 -0.65796673 0.7443188
000270 87 76 a9 be cb 35 41 3d 15 78 b8 bf 28 75 60 bf
       -0.33098242 0.04717044 -1.4411646 -0.87678766
000280 60 65 4d bd f0 4a 23 be d4 26 8f 3e 52 59 0a 3f
       -0.050145507 -0.15946555 0.2795931 0.5404254
000290 64 4c 44 be b3 f7 66 bf 06 ea 15 bf 03 9e e2 be
       -0.19169766 -0.9022171 -0.58560216 -0.44261178
0002a0 78 07 e2 be b2 84 31 be c1 19 79 3f 53 81 ee 3f
       -0.44146323 -0.17335775 0.9730492 1.8633217
0002b0 f6 97 e0 3e 5b bd 52 bf a4 67 ba bf 64 3c 0f bf
       0.43865937 -0.82320184 -1.4562879 -0.55951524
0002c0 c5 15 21 bf 6d 6b e6 bf bf 20 82 bf 1a dc 4e 3f
       -0.6292384 -1.8001534 -1.0166243 0.808046
0002d0 2b 1e 1c 3f b6 ec 84 3e 02 7b 43 bd 70 0a 7b 3f
       0.6098353 0.25961846 -0.04772473 0.980628
0002e0 90 b0 02 3e 5b 83 f9 bc a2 60 49 3e f9 d7 bb bd
       0.12762666 -0.030458143 0.19665769 -0.09172053
0002f0 75 44 43 bf 4f 4f 80 be 22 0a 22 3e 7f 1e af 3f
       -0.7627633 -0.25060508 0.15824178 1.3681182
000300 89 99 72 3e f9 15 21 3f e1 18 9b bf db e7 ad bf
       0.23691382 0.6292415 -1.2116967 -1.3586382
000310 48 f3 f7 3c d9 2c c1 3f 69 38 04 40 80 64 70 bf
       0.030267373 1.5091811 2.065943 -0.9390335
000320 f1 a0 67 bf 4b dc af 3f 7b 9e 80 3f 71 3f c8 be
       -0.9047995 1.3739103 1.0048364 -0.39110902
000330 61 8f 30 bf 7e 08 85 bd 83 91 79 bf b3 9d 02 40
       -0.6896878 -0.064957604 -0.9748766 2.0408752
000340 29 dd af 3d 44 da e0 3c 04 b0 ef 3f 28 8e 8d bf
       0.08587105 0.027447827 1.8725591 -1.1059008
000350 61 55 4d bf e5 54 37 be 05 f5 e4 bd 2d 00 a2 be
       -0.802084 -0.17903478 -0.11179546 -0.3164076
000360 3d 94 73 bf 1b 7d 29 bf 59 1c 94 3f 49 0b 28 bf
       -0.9514807 -0.6620652 1.1571151 -0.6564222
000370 22 44 f2 be 81 be c9 3f a2 2c 5d 3f 42 83 08 40
       -0.47317606 1.5761262 0.8639623 2.1330113
000380 81 f6 26 bf 76 8b 59 3f 83 10 7d be c2 f9 dc be
       -0.65219885 0.84978426 -0.2471333 -0.431593
000390 5a 36 43 3f 86 5b c0 3f 63 d8 eb 3d f7 d3 0b 3e
       0.7625481 1.5027931 0.11515882 0.13655077
0003a0 cc 06 4d bf 59 3c 2a 3f 89 04 b5 3e 32 9b 76 3f
       -0.80088496 0.66498333 0.35355023 0.9633056
0003b0 7a 25 12 bf 1b 8c 1f bf 5a db 5e 3f 77 49 86 3f
       -0.57088435 -0.6232316 0.87053454 1.049117
0003c0 55 2e 88 3e 84 6d be bd e9 d3 21 3f 95 01 bf bf
       0.2659785 -0.09298232 0.63213974 -1.4922358
0003d0 41 79 4d bf 39 cd 00 40 cb 0f fe be 72 8b eb 3e
       -0.80263144 2.0125258 -0.49621424 0.46004826
0003e0 ef 04 9a 3d bf a3 55 bf 9e a0 a5 be 8c 06 b4 bf
       0.07520472 -0.8345298 -0.32349104 -1.4064498
0003f0 c1 d1 32 bf 11 e9 35 bf 6c 37 d9 3e 74 3a 4d 3f
       -0.6985131 -0.71058756 0.42425096 0.8016732

linear1.weight f4 [128, 80]
000000 8b 5f e1 bd 00 20 b0 3c d0 a8 8f bb 55 e0 c7 3c
       -0.110045515 0.021499634 -0.0043841377 0.024398962
000010 c5 4e c7 3d 34 5f 08 3d fc 6d 0e 3e a9 45 7f bd
       0.09731821 0.033293918 0.13909143 -0.062322292
000020 e8 b7 5d 3d 40 9e 7b 3d 8b 1a 82 bc dc 6d c5 3d
       0.054130465 0.061430216 -0.015881797 0.09640095
000030 bf c9 d0 bd 4d 87 53 bd e7 ac da bd c4 b0 d5 3d
       -0.1019473 -0.051642705 -0.1067751 0.10434106
000040 c9 a0 7b 3d 21 17 3c 3c 07 4b a6 bc 30 3b 64 bd
       0.061432634 0.011480124 -0.020299448 -0.055720508
000050 b4 c5 83 3d c6 ac df bd 2f 9f ff bd 43 e3 d8 3d
       0.06434193 -0.10921626 -0.12481534 0.10590222
000060 71 bf 56 3c 06 d0 87 bd 4b b9 f9 bd ea e1 95 bd
       0.013107167 -0.06631474 -0.12193545 -0.0731848
000070 68 e9 10 3e c5 7e c0 bd cf be 30 bc fe 36 19 3d
       0.14151537 -0.09399179 -0.01078768 0.03740596
000080 9b ae c9 3d ad 2c 03 be 7d 53 b8 3d 07 35 9b bd
       0.098477565 -0.12810011 0.09000299 -0.075784735
000090 00 87 ad bd 02 a5 6c bd 81 68 9b 3d 24 69 47 3c
       -0.08473015 -0.05777455 0.07588292 0.012171064
0000a0 28 b9 55 3d 7f 4d 06 be 96 3d 0f 3d 40 87 92 bd
       0.052178532 -0.131155 0.034970842 -0.07154703
0000b0 5e 50 94 3d ef 90 12 3d f0 03 60 bd a6 12 ca 3d
       0.07241891 0.03578275 -0.054691255 0.09866838
0000c0 26 91 5f 3d be 7b 4a 3d 2c 22 17 3e 27 db 9a bc
       0.054581784 0.049434416 0.1475913 -0.018903328
0000d0 b7 6e 83 bd ac 50 ca bd d6 5e 36 3d 27 54 19 bd
       -0.064176016 -0.09878668 0.044524036 -0.03743377
0000e0 b2 fd b7 bd 69 55 72 bd f4 47 b3 bc 20 68 cf bc
       -0.089839354 -0.059163485 -0.021884896 -0.025318205
0000f0 2a f9 a2 3d ee d3 02 be 3f f1 9e bd 2c bf b5 bd
       0.079576805 -0.12776157 -0.07760858 -0.08874354
000100 6f 93 a2 3d b2 09 ec 3c 0f 23 04 3e e7 a9 da 3d
       0.07938277 0.028813217 0.12903999 0.106769376
000110 63 75 7c 3d 82 b2 14 bd 46 ba 76 3d 45 3d 4a bd
       0.061635386 -0.03630305 0.060236238 -0.049374837
000120 8f 74 89 3d 49 61 bd bd 6a cd f2 bc 16 73 05 3e
       0.06711685 -0.09247071 -0.029638965 0.13032183
000130 ef b8 6d 3d fd 36 31 bd 0f 55 13 be f0 05 90 bc
       0.058037695 -0.04326533 -0.14387916 -0.017580956
000140 90 01 db 3d 1b fd c1 3d ce f6 d8 3d 1b fb a3 3d
       0.106936574 0.09472104 0.10593949 0.08006879
000150 5d f3 0d be bd a7 56 3b 0f 8b 41 be c8 a3 12 3d
       -0.13862367 0.0032753788 -0.18900703 0.035800725
000160 e4 7a 3c bd 7d 35 04 3e c1 9a 3d be 36 85 ad 3d
       -0.046015635 0.12911029 -0.18516065 0.084726736
000170 70 71 e3 bc 9a 9e 68 3d 97 db be 3d e0 10 8a 3c
       -0.027764052 0.05679188 0.09319227 0.01685375
000180 ed ca ed 3d 15 ca 0e be a1 1a 62 3d d8 9d b5 bd
       0.11610971 -0.13944276 0.055201177 -0.08867997
000190 3e 78 03 3d bf 0f 95 3d 9a 5b f4 3c 4f 1c 9a 3c
       0.032097094 0.07278394 0.029828835 0.018812327
0001a0 7c 3a a5 bd 1b f1 9f 3e 35 21 2c 3c 69 a0 50 3e
       -0.08067796 0.31238636 0.010505964 0.20373692
0001b0 28 07 ac 3d b3 38 72 bc 86 04 a6 bd fa 0f 29 bd
       0.083998024 -0.014784026 -0.081063315 -0.041275002
0001c0 b3 34 0c 3e 37 75 91 3d 59 f7 b7 bc 8c d2 43 3c
       0.13691978 0.07102435 -0.022456812 0.011952054
0001d0 f8 d2 cc bc 30 7a 01 3e 84 86 c1 bd e8 4d 45 3a
       -0.025002941 0.12644267 -0.09449485 0.00075265625
0001e0 ab a8 52 3d e8 e7 67 bd db 5e da bd be 58 66 3e
       0.051430386 -0.056617647 -0.106626235 0.2249479
0001f0 6a 33 b7 3d e4 a1 21 3d 29 b4 e8 3b b9 db 21 3d
       0.08945353 0.03946103 0.007101555 0.039516184
000200 31 01 8c 3d 63 36 ed bd 5e 4b 61 3d d1 4e 96 bb
       0.06836165 -0.11582639 0.055003516 -0.0045870324
000210 33 7b 90 3d 2a a2 8c bd 6d 3b 69 3d 48 d4 8b 3e
       0.070547484 -0.06866868 0.05694144 0.27310395
000220 c6 77 7f 3d 90 55 a7 3d 0b 51 36 bd 7b 6e 1d 3d
       0.062370084 0.081706166 -0.044510882 0.03843544
000230 a3 d4 41 3d 3d 63 03 be 62 5f 23 3d 9d 52 1d bb
       0.047321927 -0.12830825 0.039885886 -0.002400554
000240 83 2b aa bd 63 57 21 be 1c 14 9d 3c b2 17 0d bd
       -0.083090805 -0.15755992 0.019174628 -0.034446426
000250 9c 3e 13 3e 1d 1a 9d bd 5d 9b cd bd 7e e5 a9 bd
       0.14379352 -0.07670996 -0.10039399 -0.08295725
000260 70 6a ff 3c 1b 18 21 3e 52 16 98 bd 68 b7 4e 3d
       0.031178683 0.15731852 -0.07426132 0.05046788
000270 3a 2e d3 bd 8f ec 7c 3d 15 e7 1b 3e b6 01 d0 3d
       -0.103115514 0.061749037 0.1522487 0.10156576
000280 cc 38 d5 bd dc 0a 06 3d e7 28 02 bd 72 a5 95 3d
       -0.10411224 0.0327252 -0.03177729 0.07306947
000290 8d 34 1c 3d ce ee d4 3d 66 a7 3f bd 56 e3 9f bc
       0.038136054 0.10397111 -0.046790503 -0.019517582
0002a0 43 3e 61 3d 1a ef f1 3d 0c 28 01 bd e9 63 6f bd
       0.054991018 0.11813183 -0.031532332 -0.05844489
0002b0 98 a1 24 bd 50 b2 9c 3d 6b ce d4 3c 07 cf 08 bd
       -0.04019317 0.07651198 0.025977334 -0.03340056
0002c0 92 73 df bd c2 e1 81 bc 37 3b e4 bd ed 24 9c 3d
       -0.10910715 -0.01585472 -0.11144107 0.076242305
0002d0 2b 9d 9b 3c 03 d2 0c bd 22 09 d5 3d 0b 72 c0 3d
       0.018995842 -0.03437997 0.104021326 0.09396752
0002e0 2a 28 04 3d 78 83 da bc 10 d3 c8 bd 85 45 0b 3e
       0.032264866 -0.026674017 -0.09805882 0.13600738
0002f0 9e ba 7b bc 68 02 6b 3d 8d cc 62 3d 17 c2 c6 bd
       -0.015364317 0.05737534 0.055370856 -0.097049884
000300 e7 e7 3a bd ee 7f 94 3d fb 1f ae 3b 7e 69 5e 3d
       -0.045631316 0.07250963 0.005313871 0.054299824
000310 74 82 ea 3d a8 20 89 3d c5 d8 b9 bd f8 56 9b bd
       0.11450663 0.06695682 -0.09074549 -0.07584947
000320 3e 5a 90 3d 61 4e 1c 3d 82 0a e3 bb 1e e7 b2 3d
       0.07048462 0.038160685 -0.006928743 0.08735488
000330 69 d5 35 bd 99 78 ea bd b8 fb c5 3d 40 21 7a bd
       -0.044392977 -0.114487834 0.09667152 -0.061066866
000340 30 ea b4 3c c5 b4 1f 3d bf e7 ec bd 5b d7 ca 3d
       0.022084326 0.038990755 -0.115676396 0.09904357
000350 ca 3b 77 3d 3d 7b 2d bd 3f c9 dc 3d 30 c0 af bd
       0.060359754 -0.042353857 0.10780572 -0.08581579
000360 91 06 aa 3d 0a 72 b6 bb d7 eb 68 3c f5 58 90 3d
       0.08302034 -0.0055677937 0.014216385 0.07048217
000370 10 15 23 3d 11 3d 37 bd 53 6b 91 bd 0c 48 a4 3d
       0.03981501 -0.04473597 -0.071005486 0.08021554
000380 d7 f2 8f 3d e0 ad 83 bd 49 ce d6 bd ae af 03 3e
       0.0702874 -0.064296484 -0.104885645 0.12859985
000390 29 26 9d 3b 52 0e 4d 3d 0b 74 2e bd e2 27 14 bd
       0.004795809 0.050062485 -0.042591136 -0.036170848
0003a0 a0 26 85 3d 5f cd ac bd 29 73 0c 3e 43 8a 91 3d
       0.06501508 -0.08437609 0.13715805 0.071064495
0003b0 03 92 f2 3c b5 93 04 be d2 b3 ff 3c 41 2a 73 bd
       0.02961064 -0.12946971 0.031213675 -0.05936647
0003c0 9a 1a e7 bd da ab ff 3d 28 af 3f be 62 1d c6 bd
       -0.11284371 0.1248395 -0.1871916 -0.09673573
0003d0 74 e2 97 3c 7b 5b 6a bd ab 23 ed 3d a0 9b dc bd
       0.018540598 -0.05721615 0.11579069 -0.107718706
0003e0 c1 78 85 bb 1e 3c 37 3d ef 1b 15 bd 44 04 f4 bb
       -0.004073233 0.044735067 -0.036403593 -0.0074467976
0003f0 ef 51 78 bd d6 80 e4 bc 7d 8d 9b 3d d7 b0 3d 3d
       -0.060625013 -0.027893465 0.07595346 0.046311226

linear1.bias f4 [128]
000000 59 67 e5 3d 9f dd 44 3e 17 e1 8f 3d 13 08 14 3e
       0.112013526 0.19225167 0.07025354 0.14456205
000010 40 3f 0a 3e 35 df 13 3e 96 64 7b 3c 09 22 9a 3d
       0.1350069 0.14440615 0.015343806 0.07526023
000020 75 88 04 3e dd 63 67 3e ed 2c 8c 3c dd d7 77 3d
       0.12942679 0.22596689 0.017111266 0.060508598
000030 0f 4d 3f 3d 31 e1 a5 3d a4 c4 e6 bb c4 1c 35 3d
       0.04670435 0.080995925 -0.0070424844 0.044216886
000040 71 2e 74 3d 20 3e 46 3c 3f 3a e0 3d 8e 3d 2f 3e
       0.059614602 0.012099773 0.109486096 0.17113325
000050 28 bd 96 bd c7 47 b7 3c 3f 92 28 3b a8 fd be 3d
       -0.073602974 0.022373093 0.0025721935 0.09325725
000060 ae 76 29 3e 2e 17 60 bd 5a d7 fd 3c 1b 00 20 3e
       0.16549179 -0.054709606 0.030986477 0.1562504
000070 9e b1 95 3c cb d3 43 3e af 83 98 3d bd 65 ef 3d
       0.018273171 0.19123761 0.07446992 0.11689327
000080 27 59 81 bd 19 62 5e 3d 7e 65 0a 3d a1 13 ca 3d
       -0.063158326 0.054292772 0.033788197 0.09867025
000090 e1 06 d4 bc a9 42 20 3e 7b 93 9d 3d a7 9e 79 3d
       -0.025882186 0.15650429 0.07694145 0.06094232
0000a0 57 37 b3 bc 08 d8 22 3e e3 01 50 3d d2 6d fe bc
       -0.021876974 0.15902722 0.05078305 -0.031058226
0000b0 55 e7 41 3e 17 0e 9b 3d 1e ec 92 3c 09 00 18 3e
       0.18935902 0.07571047 0.017934855 0.14843763
0000c0 d8 7d a6 bc e8 4b 00 3e ec 29 10 3e 5d 28 23 bd
       -0.020323679 0.12528956 0.14078492 -0.039833415
0000d0 7e 95 f1 3c a4 b0 44 3c 59 c1 6f 3a b9 13 b1 3d
       0.029490229 0.012005005 0.00091459375 0.0864634
0000e0 d0 c2 67 3d b7 05 c3 3d dd 82 45 bd 3b 51 af 3c
       0.056582272 0.095225744 -0.048220504 0.021401038
0000f0 74 eb 9a 3d c9 17 d9 3d 16 5d fe 3d c2 f8 80 bd
       0.0756444 0.1060024 0.124200985 -0.06297447
000100 2c 79 21 bd b2 bb 90 bc 6e a7 48 3c 26 53 88 3c
       -0.0394222 -0.017667625 0.01224695 0.01664121
000110 e0 0f a3 3d 21 7a 0b bd 8c 1b 3c 3d 81 6f 20 3e
       0.07962012 -0.034052018 0.04592471 0.15667535
000120 77 a0 6b 3d e4 fc 04 3d 8a 76 d3 bc b6 bf d4 3d
       0.057526078 0.032467738 -0.02581336 0.103881285
000130 60 74 93 bd 35 ef ed 3d f7 c0 10 bd c1 f1 64 bb
       -0.07199931 0.11617891 -0.035340276 -0.0034934136
000140 02 2c ae bb a3 54 41 3e ed 46 4d bc fe 50 2a 3d
       -0.0053153047 0.18879943 -0.012529117 0.041581146
000150 28 8d 3c 3d 64 a0 72 3c 8f df fa bc d5 9a c6 3d
       0.046033055 0.014808748 -0.03062418 0.096975006
000160 82 ac 31 bd 5d ff f3 bc 8c b2 23 3e 4e f5 d6 bc
       -0.043377407 -0.029784853 0.15986079 -0.026240017
000170 69 1b 04 bd 62 5f 21 3d ad db ee 3d 85 d5 3c 3d
       -0.032252703 0.039397605 0.116629936 0.046102066
000180 46 f0 c0 bc 89 15 47 3e 0a 6b 0b 3d b7 ea 54 bd
       -0.023552071 0.19441809 0.034037627 -0.051981654
000190 01 3c a2 3c e9 2d 8c bd 3f 14 d9 ba 29 7a 19 3e
       0.019804003 -0.06844694 -0.001656182 0.14988007
0001a0 ae ad 3d 3e ac 9a c8 3d 41 98 d7 3d 71 1c ac 3d
       0.18523285 0.09795126 0.10527087 0.08403862
0001b0 9b 7f 2c bc 15 fc 36 3e 38 e5 ca bc 7e 48 13 bd
       -0.01052847 0.17869599 -0.024767503 -0.035957806
0001c0 77 bd ab bd 30 ac 0e bd 2c d1 e2 3d be a7 1e 3e
       -0.08385747 -0.03483218 0.110750526 0.15493676
0001d0 60 42 af bd 9f 76 c1 3d 53 6f e8 3c 41 10 2a 3e
       -0.08557582 0.09446453 0.028373396 0.16607763
0001e0 28 3a 35 3d 51 4b a8 3d 66 0b e9 b9 5a cc c8 3d
       0.044244915 0.082174905 -0.00044449716 0.09804602
0001f0 09 de 21 3d 91 42 a9 3d ce 87 d0 3c 1b 95 a2 3d
       0.03951839 0.0826465 0.025455382 0.07938596

linear2.weight f4 [79, 128]
000000 7d e8 f8 bd 9f 2e a1 3e 5e c6 ad bd 17 c3 9d 3c
       -0.121537186 0.31480882 -0.08485101 0.019258065
000010 7f 2f 12 be 20 57 0e bd 05 85 b0 3d 18 9b ed 3d
       -0.14275931 -0.034751058 0.086191215 0.116018474
000020 14 d3 30 3c 3c 97 9c bd a4 7d 2a 3e 37 1b 16 be
       0.010792512 -0.07646033 0.1664949 -0.14658819
000030 54 7a ce bd 77 1b 43 3c e5 b7 08 3e 7e fa f4 bd
       -0.10081926 0.011908404 0.133514 -0.1196184
000040 70 3c 3a bd 05 8d 21 bd 09 0a d7 3c af 4b 04 be
       -0.045467794 -0.039441127 0.026249902 -0.12919496
000050 5c ce 8a 3d 4e f0 09 bd 95 6a 4a 3e dd 5a 0b bc
       0.06777641 -0.033676438 0.1976722 -0.00850555
000060 8c ba 9d 3e f1 ef 9f bc 84 12 f5 3d c5 96 a6 3e
       0.30806386 -0.019523593 0.11966422 0.32536903
000070 cd 13 77 3d 60 6e 83 3e 02 a0 da 3d e5 c1 59 3d
       0.060321618 0.25670147 0.1067505 0.053163428
000080 56 d7 2c bd c8 33 8a bd f9 f6 ce bc ce 06 a2 bd
       -0.042197548 -0.06748158 -0.02526425 -0.07911454
000090 7f 05 4b 3d 89 99 d8 bc 07 3d 61 3e 47 cf a6 bd
       0.04956579 -0.026440399 0.21995936 -0.08145004
0000a0 14 d6 92 bd 02 94 4b be 12 bd 63 3d 47 84 b6 bc
       -0.071697384 -0.19880679 0.055600233 -0.022279872
0000b0 89 6f 15 bc 67 34 d6 bd 70 a1 44 3d 8d 8e 45 3d
       -0.00912083 -0.10459214 0.04800552 0.04823165
0000c0 42 11 93 39 a6 8e 58 bd 1a 9d e6 3d 88 00 fe bd
       0.00028050883 -0.052870415 0.112604335 -0.12402445
0000d0 c7 a2 cb 3d 11 06 3e be 65 3b e8 3e a6 fa e0 bd
       0.09943157 -0.18557002 0.45357814 -0.109853074
0000e0 75 e2 db bd 36 4c 18 be bb d1 06 3e a6 a4 e5 bd
       -0.107365526 -0.14872822 0.13165943 -0.11213045
0000f0 53 38 ab 3c 69 7a af 3d 8a cf ed bd 72 75 61 3e
       0.02090088 0.0856827 -0.116118506 0.22017458
000100 60 12 f4 bd 55 e7 2d bd 99 90 da bc fa c6 5a bc
       -0.11917567 -0.042456944 -0.026680278 -0.013353104
000110 07 d6 34 be 18 fe 06 3e c4 21 0e 3e 2b 11 74 3e
       -0.1765977 0.13182867 0.13880068 0.23834674
000120 6b cb 8c bd 50 a6 2c be 52 69 97 3d 82 f9 85 bd
       -0.068747364 -0.16860318 0.07393135 -0.065417305
000130 63 1b e1 bc 23 61 18 3d 76 d4 9b 3b 66 a5 6d 3e
       -0.02747888 0.03720201 0.004755552 0.23207626
000140 b9 4f 0c 3d 6f 8a 57 bc 6c fd 6e 3c 12 23 bf 3d
       0.034255717 -0.013155564 0.014586788 0.09332861
000150 88 15 05 be 7c f5 c7 bd c9 bd 0d 3e 54 f0 0d 3d
       -0.12996495 -0.09763619 0.13841929 0.034653023
000160 37 e1 79 bc 32 89 f0 3d 64 29 b0 3d 4a ad 77 bd
       -0.015251449 0.11744918 0.08601645 -0.060467996
000170 86 a6 69 3d d2 06 81 3d af 64 18 be cf c1 b7 bc
       0.057043575 0.06300129 -0.14882158 -0.022431282
000180 0e 80 8c 3d b3 cd 9a 3e ac 8b 08 bd c5 73 cb bd
       0.06860362 0.3023506 -0.033336326 -0.09934191
000190 6c f8 ab 3c bc 7d a3 bd 32 dc 6d 3c e0 b2 a9 3e
       0.02099248 -0.07982966 0.014517831 0.33144283
0001a0 a7 01 2d be eb ec af bd f6 25 84 bd 94 92 ab 3d
       -0.16895162 -0.085901104 -0.06452553 0.08377567
0001b0 dd 1a 1a bc 5f 53 8c 3e 88 a7 5a 3d 41 0a 7a bc
       -0.009405819 0.27407357 0.053382427 -0.015261234
0001c0 0f 5d 8e bc 63 3a 42 3d 02 10 98 3d 5d 5d 0e 3e
       -0.017378358 0.047418963 0.07424928 0.13902803
0001d0 bd 0f 41 3d 96 22 21 be 13 f5 b1 bd 78 cb cb 3d
       0.04713415 -0.1573585 -0.08689322 0.09950918
0001e0 52 ed 02 3f 05 f6 5d 3d 46 0e 36 39 a0 48 c2 bd
       0.5114337 0.0541897 0.0001736219 -0.09486508
0001f0 44 fd 0d bd 66 3f 01 be 39 39 c5 3d 9f 32 49 be
       -0.03466536 -0.12621841 0.09630055 -0.19648217
000200 ce 3b ce 3c 0e a7 e1 bd ee 94 2f 3d 79 5a 2f 3d
       0.025175001 -0.11018191 0.04286664 0.04281089
000210 05 1a 9f bb 48 6e 9a bc 64 45 6b 3c a4 c0 33 3d
       -0.0048553967 -0.018851414 0.014359806 0.04388489
000220 36 45 93 3c 62 ac f2 bc 82 14 a4 bc 87 1d bd bd
       0.017977338 -0.029623214 -0.02002931 -0.092341475
000230 19 f5 d9 39 4e 91 7a bd e2 ef cf bd 42 ee 57 bc
       0.00041572077 -0.06117373 -0.10153176 -0.013179364
000240 3e 06 87 3d 3c 13 ba bd 13 67 c2 bd 5f a1 14 3a
       0.065929875 -0.090857 -0.09492316 0.0005669798
000250 52 50 4e 3d 49 38 f5 bc 57 15 d0 ba 2f 78 17 bd
       0.05036957 -0.029934065 -0.00158755 -0.03697985
000260 8d 40 95 bd 64 aa a0 bc b4 65 4b bd 7f 6d 6a 3d
       -0.07287703 -0.019612499 -0.04965754 0.05723333
000270 e1 73 87 3d 84 a6 50 bd c8 b8 b5 bc 20 48 79 bd
       0.06613899 -0.05094005 -0.022182837 -0.0608598
000280 90 77 aa bd fb f8 8c 3d be d1 2f 3d b5 7f 7e bd
       -0.08323586 0.06883427 0.042924635 -0.06213351
000290 d6 88 51 bd f4 3a 57 3d 3d 84 69 bc 6a 8c 95 3d
       -0.051155888 0.052546456 -0.0142527195 0.073021725
0002a0 03 7b 3e 3d 61 19 8a 3d f6 c5 ba bd ec fe 85 3d
       0.046504032 0.06743122 -0.09119789 0.06542763
0002b0 f2 90 79 3b be b9 58 3d ae fd 73 3d f8 da 59 3c
       0.003808078 0.052911513 0.0595681 0.013296835
0002c0 66 2e 6a 3d 19 29 98 bd 8e bb c4 bb 91 4e 12 bc
       0.057173155 -0.07429714 -0.0060038036 -0.0089298645
0002d0 c6 7d a0 3c 1f 5d 9d bd 33 7f 4d b6 f3 7d 81 bc
       0.019591223 -0.07683777 -3.062142e-06 -0.015807128
0002e0 59 1b e5 3c d6 e9 99 bd ae 85 c6 bd 36 83 7d 3d
       0.027967142 -0.07515304 -0.09693466 0.06189271
0002f0 8b b1 e8 bb 9d 56 5f bc 83 aa 4d bd 00 5f 44 bd
       -0.007101243 -0.01363149 -0.05021144 -0.04794216
000300 2f 93 1d bd 98 eb 2c bd ac bd 6c 3b 25 a1 eb 3b
       -0.038470443 -0.042216867 0.0036123795 0.007190841
000310 1c 4b 22 3d 77 05 b2 bd 5b 90 83 3d 1d f5 5e 3d
       0.03962241 -0.086924486 0.06424018 0.054432977
000320 2e 37 b5 3c aa f8 17 bd 21 aa 8a bb 72 a7 8e bd
       0.022121038 -0.03710238 -0.0042317067 -0.069655314
000330 81 2b 9b bd c8 43 3a 3d 00 b1 17 bd fc 8c 36 3d
       -0.07576657 0.045474797 -0.037034035 0.044568047
000340 5e b5 41 bd 30 25 d7 bd c0 33 60 3d 09 6c 83 bc
       -0.047292106 -0.1050514 0.054736853 -0.016042726
000350 97 18 60 3c 12 5e 22 bd d7 89 34 bd 76 b3 76 bd
       0.013677738 -0.039640494 -0.044076767 -0.06022974
000360 81 b8 43 bd ab bb a5 3c eb 10 4b 3d d7 e3 82 bd
       -0.04778338 0.020231089 0.04957668 -0.06391113
000370 97 f1 cb bd 0c 7b a1 bc c2 c2 3a bd ef b1 90 3c
       -0.09958189 -0.019711994 -0.04559589 0.01766297
000380 12 13 d3 bc 2e 32 23 bd 0e 50 85 3d b8 fe 8b 3d
       -0.02576593 -0.039842777 0.0650941 0.06835693
000390 80 05 52 bd 79 6f 6b 3d 15 20 30 3d b8 6a 52 bb
       -0.051274776 0.057479355 0.042999346 -0.0032107066
0003a0 b3 3e 9a bc 5e 59 51 bd fd 29 cf bc a6 66 2c 3d
       -0.018828725 -0.051110618 -0.025288576 0.04209008
0003b0 39 fa 7e bd 44 56 83 3d 21 03 14 3d 56 a2 53 bb
       -0.06225035 0.06412938 0.036135796 -0.0032292805
0003c0 66 0d 86 3d b5 1e 1b bd c1 2a b6 bc ef ef 94 3c
       0.06545524 -0.03787108 -0.022237184 0.018180816
0003d0 f5 01 7e 3d e0 ff 93 3d 71 6b 91 bd 0f 68 c4 3b
       0.062013585 0.07226539 -0.07100571 0.00599385
0003e0 8d 00 19 bd dc 1b 40 bc 14 c2 b3 3c 51 e7 53 bd
       -0.03735404 -0.011725392 0.02194313 -0.051734272
0003f0 81 e7 71 3d f7 22 13 bd ae b3 4e bd 04 cf bd bd
       0.05905867 -0.035922017 -0.050464325 -0.09268001

linear2.bias f4 [79]
000000 c5 92 25 3c 34 a8 ea bc 69 f7 6c 3d 51 ff 96 bb
       0.010105793 -0.028644659 0.057853136 -0.004608073
000010 d4 07 bf 3d 4c 5b 0f bd b4 2a c2 3d 45 fb 4b 3d
       0.09327665 -0.034999177 0.09480801 0.049800176
000020 26 22 61 bc fd 66 39 3c 10 4f 0b 3d 99 3b 04 be
       -0.013741052 0.011316058 0.034010947 -0.1291336
000030 71 c9 a9 bd f2 2c a2 bd f4 60 30 3d e6 1c e4 bb
       -0.08290375 -0.07918729 0.04306121 -0.006961453
000040 e3 c2 bd bd ac 23 19 3c ea 92 d3 bd 8a ba 83 bd
       -0.09265687 0.009346884 -0.10330756 -0.06432064
000050 8a e1 58 bd ca cc e1 3d 54 d9 06 bd 1a e6 16 3e
       -0.052949466 0.110253885 -0.032922104 0.14736214
000060 cc 23 c8 3b 65 30 4d 3e 2d 2d 54 bd 70 58 1e 3d
       0.006107783 0.20037992 -0.051800895 0.03865856
000070 71 68 90 3d d5 56 ca 3c ce f8 b6 3d 55 40 b7 3d
       0.070511706 0.024699608 0.089341745 0.08947817
000080 f5 eb a7 3c 58 59 da bd 30 ab 52 bd a0 2b a7 bc
       0.020498255 -0.10661572 -0.05143279 -0.020406544
000090 e0 96 85 3c 39 56 32 bd f8 45 30 3d c5 76 30 3c
       0.016307294 -0.04353926 0.043035477 0.010770504
0000a0 72 cd 47 3b 5a df 3f 3d 70 cc 0f 3d 89 5e 8d bd
       0.0030487445 0.046843864 0.035107076 -0.06902797
0000b0 e3 7e 0d bd 49 85 c8 bd 13 d9 f6 3d 7f c6 52 3d
       -0.034544837 -0.09791047 0.12053122 0.051458832
0000c0 a3 82 1f 3e b5 f2 4d bd 22 9c eb 3c b1 9d df bb
       0.15577178 -0.05028029 0.028760973 -0.006824218
0000d0 00 ff 45 3c e9 9c 14 3d a7 c2 27 3d ef f5 ee ba
       0.0120847225 0.036282454 0.04095712 -0.0018231253
0000e0 d3 a7 92 bd a5 cf 03 3d 26 7c 78 bb 71 9f 8b 3b
       -0.07160916 0.032180447 -0.0037915795 0.0042609503
0000f0 65 55 fb bd b1 ce 82 bd 67 cb df bd e0 ef dc bc
       -0.12272147 -0.063870795 -0.10927468 -0.02696985
000100 14 25 d2 bc bd 01 fc 3c e5 80 34 bd 76 71 9b 3d
       -0.025652446 0.030762548 -0.044068236 0.0759
000110 e5 a6 fc bd 4a c5 f8 bd b1 80 d7 3c 91 a2 13 3b
       -0.1233652 -0.12147005 0.026306482 0.0022527317
000120 3d 9f 4e 3d 3a dc ed bd 8e df 15 3d 73 44 17 3e
       0.05044483 -0.116142705 0.03659015 0.14772205
000130 c3 56 06 bd 59 27 f5 3c 64 1d 81 bd
       -0.032797586 0.029925989 -0.06304434
